loss_curves/netG_50k_mlp_40df.pth (torch_old, 133247 bytes, 8 tensors)

main.0.weight f4 [40, 100]
000000 46 39 80 3c 5f cf 8e 3d 3e 9b bd bd c7 76 ba bd
       0.01565231 0.06973147 -0.09258126 -0.09104686
000010 27 61 58 bd 84 a6 0c 3d 6d 64 9f 3a 6b b6 bc 3d
       -0.052827027 0.03433849 0.0012160667 0.09214481
000020 18 59 56 bc bd 72 0b 3d 12 88 16 bd 30 84 8e bc
       -0.013082765 0.03404497 -0.03675086 -0.017397016
000030 2a bb e5 bd 26 3d a6 bd 39 4b 49 bd 27 e6 57 3b
       -0.11217339 -0.08117132 -0.049144004 0.0032943578
000040 3f 47 22 3d 2c ce 8f 3d f6 28 a0 bd 7a ef 6e bd
       0.039618727 0.07021746 -0.07820313 -0.05833385
000050 aa b4 09 3d 41 1e ca 3d 48 be d4 bc ed 02 ba 3d
       0.03361956 0.09869052 -0.02596964 0.09082589
000060 de 6f 9a bc a6 3c a8 3b 95 b4 e1 3d 65 5c e1 bd
       -0.01885217 0.005134183 0.110207714 -0.11003951
000070 12 d8 98 bd 07 dc 02 bd d3 47 13 bd 1a 88 bc 3d
       -0.07463087 -0.031948116 -0.03595717 0.09205647
000080 cb d6 99 bd e7 f5 47 bd db d6 b5 bd 9c 31 f4 bd
       -0.07511672 -0.048818495 -0.08878871 -0.11923525
000090 53 64 7a bd e2 fa c9 3d e5 d9 73 3d dd 0d 7a 3d
       -0.061130833 0.09862305 0.059533972 0.061048377
0000a0 5a 99 bd 3b 75 9a 87 bd c5 48 9f 3c 03 2a e4 bd
       0.005786103 -0.06621257 0.019443879 -0.111408256
0000b0 1f 9a b1 bd c2 55 83 bd 9d aa 9d 3d 6e 74 94 3d
       -0.086719744 -0.064128414 0.076985575 0.0724877
0000c0 bc 1e 41 bd d7 c3 57 3a 64 73 a4 3d a0 ee fb 3d
       -0.04714845 0.00082307815 0.080298215 0.123013735
0000d0 c6 ee 37 3d b7 7b 16 3c e6 43 be 3d 17 1b 87 bd
       0.044905446 0.009184769 0.09290294 -0.06596964
0000e0 81 ae a4 3c bc ee c8 bd 9b 80 9a bd b4 70 82 bd
       0.020102741 -0.0981116 -0.07544061 -0.06369153
0000f0 d5 04 79 3d 0b b4 50 3d b4 23 5e bd f0 1c 0e 3d
       0.060795624 0.050952952 -0.054233268 0.034695566
000100 73 3e 8c 3d 7d 38 a3 bc cb ed 32 3c 79 df bb 3c
       0.06847849 -0.019924397 0.010920952 0.022933709
000110 e1 d3 a7 3d 95 29 ea 3d 00 40 c0 bd 34 a7 5a bd
       0.081947096 0.114337124 -0.09387207 -0.053382114
000120 16 6e 55 3d f6 cb d2 3d ef 96 c0 3d 4e 83 d9 3d
       0.05210694 0.10292809 0.09403788 0.106207475
000130 07 06 0d 3d c2 ec e0 bd 2c 56 fc ba 81 1f 9e bd
       0.034429576 -0.10982658 -0.0019251755 -0.07720853
000140 1d fa eb bd 08 7e da 3d 75 72 b2 3d 35 dc f5 bd
       -0.11522315 0.1066857 0.08713237 -0.12004892
000150 9d de 92 3c 51 23 d8 bc 06 f4 9f bc 45 39 4b bd
       0.017928416 -0.026384028 -0.01952554 -0.049615163
000160 61 6a 4f 3d f6 58 86 bd 36 07 4f 3d b6 d5 80 3d
       0.05063856 -0.06559937 0.050543986 0.06290762
000170 61 d7 bb 3d ff e9 0e 3d 9a 66 ee bd 6c 99 94 bd
       0.0917194 0.034891125 -0.116406634 -0.072558254
000180 7b f8 83 3d 54 b6 b0 3c 1f 77 b0 bd 84 5f 8c bd
       0.06443878 0.021571316 -0.086164705 -0.06854156
000190 16 46 d4 3d 6d d2 8b 3d 69 e3 86 bd e3 e5 e3 bc
       0.1036493 0.06827245 -0.06586344 -0.02781958
0001a0 5f 72 e3 bd 2d 06 05 bb b1 14 af bd c2 51 b7 bd
       -0.11105799 -0.002029787 -0.085488684 -0.08951141
0001b0 6c 0b b2 bb 16 4f ac 3c f7 4f 2e bd d4 b8 99 3d
       -0.0054334905 0.021033805 -0.04255673 0.07505956
0001c0 ec d4 8b bd 99 e7 cf 3d 93 7f 99 3d 1b 8a c8 bd
       -0.06827721 0.101515956 0.07495036 -0.097919665
0001d0 db 40 d8 bc 0d 07 fa 3b 50 24 e1 3c 10 b9 f1 3c
       -0.026398113 0.007630235 0.027483135 0.02950719
0001e0 78 b8 49 3d 05 06 08 3c 36 60 53 bd 33 61 1a 3d
       0.04924819 0.008302216 -0.051605426 0.037690353
0001f0 1d 36 e3 bd bd f3 93 bd 15 b9 bb bc d9 b9 5f bd
       -0.11094306 -0.07224224 -0.022915402 -0.054620598
000200 1c 46 41 bd 9e 5d d3 bd cc ba cd bc b6 b2 d8 3c
       -0.047186002 -0.103205904 -0.025113486 0.026452404
000210 27 69 97 bd 58 6e 1f bc 20 14 aa 3d 7a 94 8a bc
       -0.07393103 -0.009730898 0.0830462 -0.016916502
000220 89 9f 00 3c f8 98 81 bc 92 97 af 3c 8f 0e 9a 3d
       0.007850536 -0.015820011 0.021434579 0.07522308
000230 99 dd db 3d 67 98 a8 3d b2 5a f0 3d 9e c4 f2 bb
       0.10735626 0.082321934 0.11736049 -0.0074086925
000240 e6 86 e7 bd c8 05 79 bd 83 c0 a7 3d e2 10 e2 3a
       -0.11305027 -0.06079653 0.081910156 0.0017247463
000250 ed a8 81 bd ae 04 bd bd 54 9a da bd 83 6c c3 bd
       -0.06331048 -0.09229408 -0.10673967 -0.09542181
000260 36 6b 54 bc 53 6e 8c 3d 0c ca 7e 3d 2a 40 e9 bd
       -0.012965014 0.0685698 0.062204406 -0.113891914
000270 51 61 ac 3d 3f 73 bb bd ec c7 ce bc 86 29 3b bd
       0.08416999 -0.09152841 -0.025241815 -0.045693897
000280 91 9a b5 bc 87 c8 17 bc c1 f6 c8 bd 64 50 c9 bd
       -0.02216843 -0.009264118 -0.098126896 -0.098297864
000290 70 59 a5 bc 6f 52 f7 bb b0 cd 57 bd 19 93 20 3d
       -0.020184249 -0.0075476686 -0.052686393 0.039202783
0002a0 3a 17 cc bd 74 f7 09 bc 32 ad c0 3d c7 02 77 bd
       -0.099653676 -0.008420814 0.094080344 -0.060305383
0002b0 6b ba e4 3d 79 20 22 3d 46 2d dc bd b8 2d 89 3d
       0.11168369 0.03958175 -0.10750823 0.06698173
0002c0 47 ef 91 bc ac 27 7c bd 0b 59 cb 3d d8 77 c1 bd
       -0.017814292 -0.06156127 0.09929093 -0.094466865
0002d0 34 cf a4 3c c9 9a bc bc 67 15 ab 3d 44 bd 18 3d
       0.020118333 -0.023023026 0.083536915 0.037289873
0002e0 ae 09 85 3d bb 0f 35 3d b2 e2 dd bc df fd e5 bc
       0.06495987 0.044204455 -0.027085636 -0.028075157
0002f0 aa 43 be bd 50 e7 6f 3d 88 d1 c1 3d 35 ee a1 3d
       -0.0929025 0.058570206 0.09463793 0.079067625
000300 96 20 9d bd 70 4a e3 3b 8f b0 b5 bd f2 8f 85 bd
       -0.07672231 0.006936364 -0.088715665 -0.06521596
000310 f7 c5 87 bd 90 bf 01 3d e5 17 88 bd 75 d9 c8 3b
       -0.06629556 0.03167683 -0.066451825 0.0061294385
000320 69 af 6b 3b 36 04 99 3d 92 fd c8 bd ef ac b6 bd
       0.0035962707 0.07471506 -0.0981399 -0.08919703
000330 7e de a3 bd 83 ad a7 3d c8 11 4a bd 14 31 d3 3d
       -0.080014214 0.081873916 -0.049333364 0.10312095
000340 4d ea 42 3d 13 bd a1 3c 43 10 bc 39 d8 44 dc bc
       0.047586728 0.019743478 0.0003587027 -0.026888296
000350 1a 2e 46 3c 0d 89 b3 bc 45 7c c4 bb dd f0 9f 3c
       0.012095952 -0.021915937 -0.0059962594 0.019524032
000360 73 7f a6 bd ce 06 89 bd c6 a7 c7 3d 7b 74 c0 bd
       -0.08129778 -0.06690751 0.09748797 -0.09397217
000370 71 42 e6 bb 8f 35 f3 3d c0 90 2c 3d ad f7 d9 38
       -0.0070269634 0.1187545 0.04213023 0.000103934995
000380 1a df d1 bd e6 19 85 3d 15 dc 9c bd 54 fb cc bc
       -0.10247631 0.0649908 -0.07659165 -0.025022186
000390 8e 2b 22 bd 40 ce a4 bc 92 91 72 bb 74 e7 b6 3d
       -0.03959232 -0.020117879 -0.0037013036 0.08930865
0003a0 7b df 69 3c ab 31 d5 3d 44 40 90 3d 3d d6 a3 bd
       0.014274473 0.10409864 0.07043508 -0.07999847
0003b0 f9 90 7f 3d 12 9d b2 bd 6a c4 53 bd ae 3f 1b 3d
       0.062394116 -0.08721365 -0.051700987 0.037902527
0003c0 ce 98 14 3d 2d 57 af 3d f5 d1 fa bc 42 e3 ae bb
       0.03627854 0.08561549 -0.030617693 -0.00533715
0003d0 a2 f4 67 3d 34 49 01 be db 0f b1 3d 69 59 ba bd
       0.056629784 -0.12625581 0.08645602 -0.09099085
0003e0 88 93 6f 3a 69 15 dd bc a0 ec 6a bd 8a 03 a4 3c
       0.00091391103 -0.026987748 -0.05735457 0.020021219
0003f0 3b aa cf 3d 23 af 03 bd 79 d7 79 bd 32 ce 14 bd
       0.10139891 -0.032149445 -0.060996506 -0.036329456

main.0.bias f4 [40]
000000 cc 0f da 3d a0 a9 4d 3c 46 56 f3 3d cc 12 54 bd
       0.10647544 0.012552649 0.1188169 -0.05177574
000010 8a 86 02 3e 42 2c e1 3d 4d 97 fe bc 7a f6 49 bd
       0.12746635 0.1099477 -0.031078005 -0.049307324
000020 c2 a0 08 3e 8b ad 28 3e 11 98 40 3d 46 1d 04 bd
       0.13342574 0.16472451 0.04702002 -0.03225448
000030 97 9e da 3d 56 e8 b1 3d 3d 8d ef 3c 6a 2d f9 3d
       0.1067478 0.08686893 0.029242152 0.12166865
000040 85 b0 91 3d 42 0d 80 3d ef 57 d3 3d ad 9e 3b bd
       0.071137466 0.06252529 0.103195064 -0.045805622
000050 52 51 c3 3a 65 4e 5b 3d 99 aa 92 3d 31 7b 5e 3d
       0.0014901555 0.05354156 0.07161445 0.054316703
000060 18 d0 78 3d 09 f9 a6 3d 08 fe 5b bd ba ed a6 3d
       0.06074533 0.081529684 -0.05370906 0.081508115
000070 0a b5 f6 3c 40 4d ae bc 59 76 45 3d 74 5b f4 3c
       0.030115623 -0.02127707 0.04820857 0.029828764
000080 5a 80 cc bc 15 66 23 bd 18 a8 fa 3d f1 40 6f bd
       -0.024963547 -0.039892275 0.122390926 -0.058411542
000090 b4 b8 42 3c ea 50 02 3e 1a 87 16 3d 9f 38 ce bc
       0.011884857 0.12726179 0.036749937 -0.025173483

main.2.weight f4 [40, 40]
000000 78 15 e3 bd 87 10 84 3d 85 e3 12 bd f8 eb 3a 3d
       -0.11088079 0.06448465 -0.03586151 0.045635194
000010 11 d4 ab 3d e7 e3 c3 bb 23 88 0e 3e 8a c0 89 3c
       0.08390058 -0.005978096 0.1391912 0.016815443
000020 ef a5 bb bc c8 b6 7d bd e7 60 ad 3d d0 b8 66 bd
       -0.022906272 -0.061941892 0.08465748 -0.056328595
000030 e6 3b 95 3d fc f8 9a 3c 76 41 0d 3e f7 c4 15 bd
       0.07286815 0.018917553 0.13794503 -0.036564793
000040 34 24 10 bd 5c 50 83 3c fe 5f 6c bd 15 7b bf 3d
       -0.035190776 0.01602953 -0.057708733 0.09349648
000050 7e e2 8f bc 67 a0 d2 3d 01 54 01 3e 25 21 03 3e
       -0.017564055 0.102845006 0.12629701 0.12805612
000060 9f 37 4c 3c 52 6e f6 3d 3b b5 40 bd 45 27 e6 bd
       0.012464433 0.12032761 -0.047047835 -0.11237959
000070 30 0a ce 3c f1 6b 9c bd 2b 0f b0 bd 5e 3a 9f 3d
       0.025151342 -0.07637776 -0.08596643 0.077748045
000080 cf cd 31 3e 07 48 b5 bc a0 e9 01 3d 11 02 99 bd
       0.17363666 -0.022129072 0.031716943 -0.07471097
000090 8e 8c 82 3d 3f d1 ab 3d db c1 71 3c 6e 31 1f 3e
       0.06374465 0.0838952 0.014755691 0.155462
0000a0 3b db c3 bd 16 23 2e 3c 39 95 62 bd 14 c5 27 3e
       -0.09563299 0.010628482 -0.05531809 0.16383773
0000b0 cf e8 21 3e 6f 9c 3b 3e 0e 75 33 3e 16 e0 b8 3d
       0.15811466 0.18321393 0.17525122 0.09027116
0000c0 8f 75 b1 bd 51 ca 96 bd a4 de 94 3d eb be d8 bd
       -0.08665001 -0.073628075 0.07269028 -0.1058329
0000d0 c3 20 05 3e 2d c8 ce 3d 48 62 82 3d 5c 13 d6 bd
       0.13000779 0.10096774 0.06366402 -0.10452911
0000e0 10 a4 11 3e da 62 56 3c bc b3 02 bd a5 0a e0 3d
       0.14222741 0.0130850915 -0.03190969 0.1093953
0000f0 5d da 2e 3d a6 f1 15 bd 28 c2 87 3d fb 3d 8b bd
       0.042688716 -0.036607407 0.06628829 -0.06798931
000100 b0 56 34 3e ba 9d 24 3e 0c 51 cf 3d 17 10 e7 3d
       0.17611194 0.16075793 0.1012288 0.11282366
000110 25 04 f8 bd e8 37 65 bd d1 1c fe bd f7 b1 40 bd
       -0.121101655 -0.05596152 -0.1240784 -0.04704472
000120 4f 81 c5 bd 51 35 13 3e 7d a4 f2 3d 92 f8 f5 3d
       -0.09643804 0.14375807 0.1184778 0.12010302
000130 53 62 23 bd 0f b4 19 3e 82 37 98 3b 9d 3d 2a bc
       -0.03988869 0.15010093 0.004645289 -0.010390666
000140 8a 27 ed 3d 28 4f 0a 3e 9e 23 9e bd 6f 7b 35 3e
       0.11579807 0.13506758 -0.07721637 0.17722867
000150 da 49 23 3c 39 52 9c 3d 44 3f fb bd 64 d1 43 3d
       0.009966338 0.0763287 -0.12267926 0.047807112
000160 84 de 1e bd 9e 35 6d bd cd 42 da bc e5 6e 23 3d
       -0.038786426 -0.05791246 -0.026643181 0.03990068
000170 73 8d e0 bb 23 4e 7c bd ab 16 09 3e de f5 a3 3d
       -0.0068527996 -0.061597954 0.13387553 0.0800588
000180 47 0f dd bd 18 4d 81 3d 30 38 98 3d be 77 16 3d
       -0.107939295 0.063135326 0.07432592 0.03673529
000190 96 99 95 3d d5 a2 96 3c 07 88 cc 3d be 76 90 bd
       0.07304685 0.018388191 0.09986883 -0.07053898
0001a0 b2 04 f0 bc 55 6e 10 3e 9d bb 85 bd 38 16 e6 3d
       -0.029299114 0.14104588 -0.06529925 0.11234707
0001b0 bf 2e 3a 3e 09 a6 d8 bd fe 15 2c bd 42 cc 2c 3e
       0.18181895 -0.10578544 -0.04201316 0.16874793
0001c0 55 d1 cc 3c 71 77 76 3d a5 d6 75 3d 8f 0a c0 3d
       0.025002161 0.060172502 0.060019154 0.09377014
0001d0 7a b7 de bc 02 7c 5d 3d 29 9f 09 3e f6 bf cc 3c
       -0.027187098 0.05407334 0.13439621 0.024993878
0001e0 c0 50 dc bd 2c df b5 3d ec 75 65 bb d1 58 3e 39
       -0.10757589 0.08880457 -0.0035012914 0.00018152899
0001f0 72 93 ec 3d bd c3 80 3d d9 8f 79 bd ed 67 21 bd
       0.115515605 0.06287334 -0.0609282 -0.039405752
000200 c7 bc 44 3c cf 56 57 bb df 24 27 3b a5 51 93 bd
       0.012007899 -0.0032858138 0.0025504155 -0.07193307
000210 51 fe 18 3e 5b a5 eb 3d 75 52 7c 3d e2 d7 91 3d
       0.14940764 0.115061484 0.061602075 0.071212545
000220 75 8c 61 3d 7b 9d 1b 3e df fe 92 3d 45 e8 6c 3d
       0.05506559 0.15196793 0.07177519 0.057838697
000230 99 20 4b bd 5e 36 b1 3d 7d 82 e5 bd 20 33 a9 3d
       -0.049591634 0.08652948 -0.11206529 0.082617044
000240 36 35 ca bd 74 a2 ff bc 8f 4e ed 3d 97 a7 64 bd
       -0.098734304 -0.031205393 0.115872495 -0.05582389
000250 20 d2 24 3e ab 29 51 bd 6b 53 3b 3e cf b9 ac 3d
       0.16095781 -0.05106513 0.1829354 0.08433878
000260 ee fe 01 bd 90 c6 04 3e e5 b0 d0 bd cb da 83 bd
       -0.03173726 0.1296637 -0.1018999 -0.06438216
000270 95 2b 82 bd 96 df 67 3d 58 6a 4d 3d 01 bd c7 bd
       -0.06355969 0.056609713 0.050150245 -0.097528465
000280 37 01 42 3e 06 6c 1e 3d ed 6b 2e bd 06 a7 25 3d
       0.18945776 0.038677238 -0.042583395 0.04044249
000290 51 85 e6 bc 97 39 ad 3d 70 cb c6 3d 33 84 c8 bb
       -0.028139742 0.0845825 0.097067714 -0.006119275
0002a0 e4 b3 4f 3d e8 f0 0a 3e d1 72 6c bd 1d 2e b0 3b
       0.050708666 0.13568461 -0.057726685 0.005376591
0002b0 53 2a 86 3c 48 0f 79 bd 9c 2d 4a 3d a1 b0 44 3d
       0.016377604 -0.06080559 0.049359903 0.04802001
0002c0 5c 1c b3 bd 58 4a 94 3d aa b7 42 3e 3e 58 f8 3d
       -0.087456435 0.072407424 0.19015375 0.12126206
0002d0 b3 63 31 bd b1 6d 3c 3e db e3 8e bd 75 a5 1d bd
       -0.04330797 0.18401219 -0.06977054 -0.03848787
0002e0 35 06 e0 3d e6 4a 24 3e 61 89 3e 3e 7e 29 32 3e
       0.10938684 0.16044196 0.18607093 0.1739864
0002f0 b6 7a 3a bd 1e 0d 9b 3d a5 8b 77 bd 0c b3 39 3d
       -0.045527183 0.07570861 -0.06043591 0.045336768
000300 61 07 2d 3e e4 b1 ee 3d 4f db c7 bd 20 bd fd bc
       0.16897346 0.11655024 -0.09758627 -0.03097397
000310 22 05 b5 bd 11 8a eb 3d 48 2a 86 3c 10 6d 92 bd
       -0.0883887 0.115009435 0.016377583 -0.07149708
000320 0b 16 78 bc cd c3 b3 3d 94 de 5b 3d 1a 30 3b 3e
       -0.015141974 0.087775804 0.053679064 0.18280068
000330 1f 9e 03 3d 6f d5 b0 3d 91 e8 36 bc 05 c8 5c 3d
       0.032133218 0.08634459 -0.011163847 0.05390169
000340 b9 c7 2a 3d 9e 1c 30 3e 99 54 d4 3d 99 73 59 bd
       0.041694377 0.17198417 0.10367698 -0.05308876
000350 01 52 d2 bd 64 02 e8 bd 63 3e c6 bc cf e8 6c 3d
       -0.10269547 -0.11328581 -0.02419967 0.05783921
000360 99 c7 3b 3e c0 09 b3 3c 2c 31 c8 3d 6e c3 eb 3d
       0.18337859 0.021855235 0.09775004 0.11511885
000370 9b 81 aa bd 51 19 be bd 46 b3 bf 3d a8 87 de 3d
       -0.083255015 -0.092821725 0.093603656 0.10865718
000380 ee b6 14 bd a9 87 6c 3d 67 f9 f1 bd 75 18 21 3d
       -0.036307268 0.057746563 -0.11815148 0.039329965
000390 f6 47 9d 3d 3d fa 16 3d f0 6e 22 3c 74 61 d1 3d
       0.07679741 0.03685974 0.009914145 0.10223666
0003a0 4c b5 b8 bb c0 8d 1d 3e dd 55 c3 bd cc a0 5a bd
       -0.0056368466 0.15386105 -0.095378615 -0.053376004
0003b0 4c 88 c3 bd ee 55 d6 bd 9f 83 19 3e c2 58 1c bb
       -0.09547481 -0.104656085 0.14991616 -0.0023856615
0003c0 c1 9b bf bd cb 02 75 3d b4 27 b9 bd a8 61 19 3d
       -0.093558796 0.059817117 -0.09040776 0.037446648
0003d0 c3 59 d1 3d d5 5f bd bb 41 59 de 3d f9 ee 71 3d
       0.10222199 -0.0057792463 0.108568676 0.059065793
0003e0 e1 30 ce bd 49 05 70 3d 9f fe 01 3e 21 29 2e bc
       -0.10067917 0.05859879 0.12694786 -0.010629923
0003f0 a3 5a 33 3d 7c a6 36 3d 20 f3 26 3d c2 c4 8e 3d
       0.04378761 0.044592366 0.040759206 0.06971122

main.2.bias f4 [40]
000000 37 db 17 3d 87 ac 59 3c 08 2d 60 bc 79 68 12 bc
       0.037074294 0.013285763 -0.013682611 -0.008936041
000010 cf 2f df bd c4 3b 40 3e 6b 0f d2 3d 9f 27 0a 3e
       -0.10897791 0.18772799 0.10256847 0.13491677
000020 db b9 9e bd f1 05 0e be d3 f9 14 3e b5 37 d7 ba
       -0.07750293 -0.13869454 0.14548425 -0.00164198
000030 fd 4c 80 3d 47 67 ef 3d 91 7c 63 3d ad 12 dd 3c
       0.06264684 0.116896205 0.055538718 0.026986444
000040 fe 9d d0 3d 93 6b 18 3e 58 c6 b5 bb 03 1f c2 bd
       0.101863846 0.14884786 -0.005547326 -0.09478571
000050 c4 e5 7d bd cc 1e 10 3e 73 d9 1a 3d 71 71 27 3e
       -0.0619867 0.14074248 0.037805032 0.16351868
000060 d0 cc 13 bd d2 d4 ed bd e1 9c b1 3d 6c 8b 4b bd
       -0.036083996 -0.11612858 0.086725004 -0.04969351
000070 8c 56 97 bd 8e d2 08 3e a3 cb 44 3d f1 6e 25 3c
       -0.073895544 0.1336157 0.048045766 0.010097251
000080 07 c0 27 3e b7 63 2d 3e cf c6 9c bd ea b8 d6 bd
       0.16381846 0.1693257 -0.07655107 -0.10484488
000090 60 e8 3a 3c d4 22 b7 bd da 36 86 bd c2 80 16 3e
       0.011407942 -0.0894219 -0.06553431 0.14697555

main.4.weight f4 [40, 40]
000000 1c cc 4f bd c4 80 45 3e 67 ce cd 3d 13 f7 75 3d
       -0.050731763 0.19287401 0.10049134 0.06005008
000010 b3 19 9e 3d 01 3e b0 3d 26 8e d3 3d c5 d2 9a bd
       0.077197455 0.08605576 0.10329847 -0.07559732
000020 8f 37 34 3d d0 1a 16 3e ff b7 51 3e 18 e3 30 3d
       0.043998297 0.14658666 0.20480345 0.043185323
000030 31 de 75 bd 3b f1 00 3e e0 cd c0 bd 1a f9 4a 3e
       -0.06002635 0.12592022 -0.094142675 0.19821587
000040 e3 a1 de 3d a6 83 df 3d 69 7d 94 3d ab c8 26 3e
       0.10870721 0.10913782 0.072504826 0.16287486
000050 1e 9e f1 bb 34 3c aa bd b1 0e 1d bd 87 fc 2c 3e
       -0.0073735854 -0.08312264 -0.03834409 0.16893207
000060 05 a8 b9 bc 62 44 a2 bd 3b cd ac 3d 49 c4 24 bd
       -0.022663126 -0.07923199 0.08437582 -0.040226255
000070 9e 28 4c 3d 57 2d 48 bd 89 b6 a7 3d 6f f8 b4 3c
       0.049843423 -0.048871364 0.08189113 0.022091119
000080 8b 4b 4c 3d 02 69 f6 3d 8d fd 51 bd 41 23 81 bb
       0.04987673 0.120317474 -0.051267195 -0.00394097
000090 f0 f6 8f bd 85 89 3d 3e 2c d6 82 bb 41 63 e8 3d
       -0.070295215 0.18509491 -0.0039928164 0.11347056
0000a0 cb ec 92 3d 0c f1 fa bd 42 c8 9f bd 99 8f b7 ba
       0.07174071 -0.12253007 -0.07801868 -0.0014004587
0000b0 3c 83 b3 bd bd 34 ed 3d a1 7e 05 3e bd c8 01 3d
       -0.08765265 0.11582325 0.13036586 0.03168558
0000c0 da 8f 4c 3d 33 db 93 3d 6c b6 a5 3d 35 df f2 ba
       0.049941875 0.07219543 0.08091435 -0.0018529656
0000d0 97 af de bc 1f 3e 70 bd 5f 57 01 3d f0 41 2b 3e
       -0.027183337 -0.058652993 0.031577464 0.16724372
0000e0 ed 77 82 bc 7a 8c 25 3e 21 65 b3 3d fb 8e 3f bd
       -0.015926326 0.16166869 0.08759523 -0.046767216
0000f0 9d 78 c6 3d c0 a5 c5 3d bc bf 11 bd ab b5 00 3c
       0.09690974 0.09650755 -0.035583243 0.007855813
000100 59 a3 b6 3c 85 8e b5 3d 33 77 1e 3e 37 d8 f1 3a
       0.022294687 0.08865074 0.15475158 0.0018451278
000110 53 dc 0c 3e 0c 42 ef 3d d4 29 d3 bd 2e e9 16 3e
       0.13755922 0.11682519 -0.103107125 0.14737388
000120 56 cf 36 3c 0d 6b 18 3e 49 a8 1d 3e 5c 75 f6 bd
       0.011157831 0.14884587 0.15396227 -0.12034103
000130 31 18 ec bd b5 10 92 3c 8b d3 a8 3d e2 15 34 3c
       -0.11528052 0.017830232 0.082434736 0.010991545
000140 0e 75 f6 bd 3a a6 e7 3d 44 c6 74 bd be ed d9 3d
       -0.12034045 0.11311002 -0.059759393 0.10641049
000150 0d 43 0f 3e 3d 0f 0a bd ab bd ea 3d 9d 73 29 3d
       0.13990422 -0.03370594 0.114619575 0.041370023
000160 6e 71 a3 bc ad 8c 1a 3d dd 65 93 3d 9f 2f c2 3d
       -0.019951548 0.037731815 0.07197163 0.09481739
000170 d3 54 71 bd 95 72 15 3e dc 09 84 bd 19 29 cf bd
       -0.058918785 0.14594491 -0.06447193 -0.10115261
000180 f2 0b 8f bd 65 3a 02 be 12 aa 83 3d 5e 4f 17 3d
       -0.069847 -0.12717588 0.06428923 0.036940925
000190 02 14 74 3c 85 de a5 bd b3 05 dd 3d e3 57 63 3d
       0.014897348 -0.08099083 0.10792103 0.055503737
0001a0 c1 93 2a bc 2e ce 60 3d e2 e4 94 3d 6c 91 95 bd
       -0.010411204 0.05488413 0.072702184 -0.07303128
0001b0 ce e8 a6 bc 05 9d 4d bd 4a 69 28 3e 17 3e 76 3d
       -0.020374682 -0.050198574 0.16446415 0.060117807
0001c0 50 db e5 bd 74 6e fd 3d 12 77 b1 ba 9b 69 26 3d
       -0.11223471 0.12374583 -0.0013539514 0.040628057
0001d0 6f 74 d9 3c 55 50 36 3c f7 b9 2d 3e 18 ba c3 3d
       0.026544778 0.011127551 0.16965471 0.09556979
0001e0 9c 75 b7 3d d8 f0 31 bc d3 cd b8 3d 66 d7 73 bd
       0.08957979 -0.010860644 0.09023633 -0.05953159
0001f0 cf 8e 48 bb 3e 9a 03 3e be ac db bd 6c f0 3a 3d
       -0.0030602699 0.12851807 -0.10726307 0.04563944
000200 81 3c 33 bc 5c 99 fb 3d 12 d2 61 bd 9d 22 99 3d
       -0.010939718 0.1228511 -0.05513198 0.07477305
000210 6b 3e ac 3b d1 c5 3d 3e 58 5d 9b 3c ed ef 61 bd
       0.0052564642 0.18532492 0.018965408 -0.05516045
000220 7f 1b 1e bd d6 e2 16 3e 1f f5 e1 3d f5 8c af 3d
       -0.03860044 0.14734969 0.11033081 0.08571807
000230 78 eb 19 3e 44 8b dd 3d d2 ca ef 3c 0f b7 ff bc
       0.1503123 0.108175784 0.029271517 -0.031215219
000240 ff 49 d0 bd 17 02 fd 3d bb 0d 2f 3e fc 9d 7e bb
       -0.10170364 0.12353914 0.17095082 -0.003885149
000250 b9 63 68 bc 9f d7 99 3d 7f 4f 0a 3d 97 d0 2c 3e
       -0.014183932 0.075118296 0.03376722 0.16876446
000260 a3 1e be 3c 88 ee 17 3d 16 62 c7 bd f2 57 c3 3d
       0.023207968 0.037092716 -0.09735505 0.095382586
000270 44 52 0b 3d f4 ca bf 3d c7 67 15 3e d7 fd f3 3d
       0.034014 0.09364882 0.14590369 0.119136505
000280 eb d3 ba 3c e2 10 03 3c 3b e4 79 bd cd fe 28 3e
       0.022806128 0.007999631 -0.061008673 0.16503449
000290 46 50 1b 3e 53 a2 82 3c 26 35 33 3e 7d 56 20 3e
       0.1516734 0.015946543 0.17500743 0.15657993
0002a0 58 fb d9 3d cf f0 c4 3d 1c 06 a1 3d b6 5f 46 bc
       0.10643643 0.09616243 0.078624934 -0.01210778
0002b0 93 c9 17 3d 46 69 19 3e 01 0f 6f bc c4 59 97 3d
       0.03705747 0.14981565 -0.01459098 0.07390168
0002c0 b0 15 37 bd 5a c4 02 3d 9e 1d e1 3d b8 62 f2 3d
       -0.044698417 0.031925537 0.10991977 0.11835235
0002d0 71 2c c6 3d d1 b6 bd 3d b5 69 8b bc e4 b6 28 3e
       0.09676445 0.09263385 -0.017018178 0.16476017
0002e0 ac d9 15 3e e3 ff 2a 3e e1 0a dd bd a8 22 46 bd
       0.14633816 0.16699176 -0.107930906 -0.048372895
0002f0 21 63 e3 bd dc 3e 05 3d 7f ba 11 3e 57 19 b3 bd
       -0.11102892 0.03253065 0.14231299 -0.087450676
000300 e2 3e 3a 3d 42 48 22 3c b1 2a 05 be db 2b 61 3c
       0.045470126 0.009904923 -0.13004567 0.013743366
000310 0c c2 63 bc 89 3e 5e bd 8a ba a2 bd 66 66 e9 3d
       -0.013901245 -0.054258857 -0.07945736 0.11396484
000320 d8 eb 84 bc 78 5b 00 bd be 0e 34 bd 18 9d a5 bc
       -0.01622574 -0.03133723 -0.04395937 -0.02021651
000330 22 a2 32 bd 11 fe c1 bd ec 28 8a 3d c0 2f 19 bb
       -0.043611653 -0.094722874 0.067460865 -0.0023374408
000340 b5 c9 10 be 88 9b a2 bd f8 20 04 bd f0 04 77 bd
       -0.14139445 -0.079398215 -0.032258004 -0.060307443
000350 50 c7 18 3d 3d 78 17 3e 32 b5 e9 bd 80 0d 18 bb
       0.037299454 0.14791961 -0.114115134 -0.0023201406
000360 55 ae 0c 3e 78 c1 bc bd 8c bc fc bd 78 bd 2c 3d
       0.13738377 -0.09216589 -0.1234065 0.04217288
000370 00 77 f1 ba 80 8d 07 bb ba 70 cb 3d b7 89 0a be
       -0.0018422306 -0.0020683706 0.0993361 -0.13529097
000380 ac ba c1 bd 6a be e0 3d 04 56 e3 bd 98 e5 ad bc
       -0.09459433 0.109738186 -0.111003906 -0.021227643
000390 ac 56 96 3d f8 d6 b0 bd ae 1b fb bd 4d 60 c1 bd
       0.0734075 -0.08634752 -0.12261139 -0.09442196
0003a0 1c f9 f0 bd cb be 0a be 58 46 d4 bc 9a 4a 16 be
       -0.11766264 -0.13549344 -0.025912449 -0.14676896
0003b0 a4 f4 c4 bd 30 2e 3f 3c 69 c4 16 3e ed a5 1f 3e
       -0.09616974 0.011668727 0.14723362 0.1559064
0003c0 1b 98 21 3e 7a fa 23 3d a4 7b fb 3d d3 35 ad bc
       0.1578068 0.040033795 0.12279442 -0.02114383
0003d0 3e fa a1 bd ef 98 c9 3d 05 9e a7 3d 16 9b 9b 3d
       -0.07909058 0.09843623 0.08184437 0.0759794
0003e0 af 88 c3 3d f4 1c a7 bc b4 45 07 3e 07 f8 d0 3d
       0.09547555 -0.020399548 0.13210183 0.102035575
0003f0 2c 4c 31 bd fb 54 11 3e 8c a9 8b 3d 6c de 11 3d
       -0.043285534 0.14192574 0.06819448 0.03561251

main.4.bias f4 [40]
000000 49 ed 42 bd 14 dd 08 be e4 08 0d 3d 42 83 22 3d
       -0.047589574 -0.13365585 0.034432307 0.03967596
000010 7d 2d 51 bd af 8b b4 bd dd e0 25 bd 92 a2 e4 3d
       -0.05106877 -0.08815705 -0.04049765 0.1116382
000020 44 c7 c3 bd 82 d1 2f bd 31 83 d5 bb 02 9c 35 3e
       -0.09559491 -0.04292441 -0.0065158834 0.17735294
000030 20 87 f3 bb 53 66 c3 3d ed 43 a3 bb 90 d8 79 bb
       -0.0074318796 0.09541001 -0.0049824626 -0.0038123466
000040 ff db a5 3d ec 3e 26 bd 2b ea de 3d 17 5c 16 3e
       0.080986015 -0.04058735 0.10884508 0.14683567
000050 4a 1f a1 3d f8 c4 c8 3d 4f 67 c4 bd 40 5b 1b 3e
       0.07867296 0.09803194 -0.09590017 0.15171528
000060 45 ec b7 bd b0 05 a4 3d b0 82 a3 3d 47 34 93 3d
       -0.08980612 0.08008897 0.07983911 0.071877055
000070 8b dc 4a 3d 49 d6 15 be 07 7f 27 3e bd 6b 3e bc
       0.049526732 -0.14632525 0.16357051 -0.0116223665
000080 f7 bc 1d 3e a9 cf 23 3c 1c 35 e4 bc ae ea fe 3d
       0.15404116 0.0099982405 -0.027857356 0.12447105
000090 bb 3c 0e 3c 66 82 e2 bd f7 02 ab 3c e8 1c ea bd
       0.008681471 -0.11060028 0.020875437 -0.11431295

main.6.weight f4 [625, 40]
000000 0c 4e 3a bd 78 aa da bd 3a fc d9 3c 50 4a 89 bd
       -0.045484588 -0.106770456 0.026609529 -0.06703627
000010 7e b1 d1 3c 52 3b f6 bd b4 4a f5 bd 4c 35 2a 3c
       0.02559733 -0.12023033 -0.11977139 0.0103886835
000020 f9 a0 4d 3d f8 57 18 3e e9 3b 01 bd a7 ca 61 3e
       0.050202344 0.14877307 -0.031551275 0.22049962
000030 5c 14 44 bd ca 18 b6 3d a0 83 e4 bd b8 6f 2c 3e
       -0.04787098 0.08891447 -0.11157918 0.16839492
000040 d2 49 2f bd 9c 39 00 3e c1 a8 c5 3c ce af 3c bd
       -0.04279501 0.12521976 0.02412832 -0.046066098
000050 91 1c 66 bc b3 6b dd bc 49 0c 0d 3e aa 3c 07 3e
       -0.014044897 -0.027028894 0.13774218 0.13206735
000060 1a 4a 2d 3e ee a9 f2 bc 6b e0 49 bc 39 06 87 bd
       0.16922799 -0.029622044 -0.012321572 -0.06592984
000070 91 86 80 3c 23 ad 10 3d a1 57 ba 3b b1 71 d1 bd
       0.015689166 0.035321366 0.0056867157 -0.10226763
000080 07 30 09 3d 75 86 fb 3b d2 d7 86 bd 1a d9 c1 bc
       0.033493068 0.0076759406 -0.06584133 -0.023663092
000090 4e 54 bd 3c c3 78 e3 bd df 13 25 3d d6 e5 ce 3d
       0.023111489 -0.11107018 0.040302154 0.101024315
0000a0 f5 42 3b 3d cf 21 3c 3c fa ce 10 3d 4d 47 8d 3d
       0.045718152 0.01148267 0.03535364 0.06898365
0000b0 3a 3f 04 bd 70 1a 71 bc a4 c8 ef 3d cf 67 ea bc
       -0.03228686 -0.014715776 0.11708191 -0.028613953
0000c0 64 f3 50 3d 1e 02 c2 bd 54 c9 b5 bd 70 d9 3b 3d
       0.051013365 -0.0947306 -0.08876291 0.04586166
0000d0 ca 7c 11 bc 63 10 37 3e 07 68 94 3c ec 62 c1 bd
       -0.00887985 0.17877345 0.01811601 -0.09442696
0000e0 c1 c4 26 3e 5c 6f 67 bd e5 77 1f 3e 79 3e 02 3c
       0.16285993 -0.056502685 0.1557308 0.007949465
0000f0 14 21 85 3d f0 99 db bd 65 29 3c 3e 6b d5 bf 3c
       0.0650045 -0.107227206 0.18375166 0.023417195
000100 84 d9 45 bd f2 2e b8 bd 67 9e 9c 3d 3b 18 04 be
       -0.048303142 -0.08993329 0.076474 -0.12899868
000110 85 30 1f 3e fc c1 ac 3d 88 6b 2a 3e ad 03 10 3e
       0.15545852 0.08435437 0.16642582 0.14063902
000120 dd 56 77 bd 83 af a5 bc 3c fe 25 3e 5f 42 00 3e
       -0.060385574 -0.020225292 0.16210264 0.12525319
000130 20 34 4e 3e 1e 96 03 bd 0a ef 5b 3d eb 4e 67 3d
       0.20137072 -0.032125585 0.053694762 0.056471746
000140 16 09 1e 3e 2e 83 23 bd e4 5e 38 3e fa 1c 4b bc
       0.15433154 -0.039920025 0.18004948 -0.012397045
000150 ee 92 00 3e de 54 f4 3d 67 6f 00 be b9 b5 59 3d
       0.12556049 0.1193025 -0.12542497 0.05315182
000160 f0 43 58 bd 81 c5 06 3e 4c e7 2f 3e 79 57 96 3c
       -0.052799165 0.1316128 0.17178077 0.018352257
000170 01 1e 57 bd 77 30 4c bd 2d 42 37 3e d4 37 84 3c
       -0.05251885 -0.049850907 0.17896338 0.016139902
000180 05 09 ac bd e5 8b 37 3e 86 f7 09 3e 88 d5 56 3c
       -0.08400158 0.1792446 0.13473329 0.013112433
000190 e5 41 6d 3d 78 ec 97 3d 0f 44 46 3e 90 58 fc 3d
       0.05792417 0.0741815 0.193619 0.123215795
0001a0 7c dd 83 3d c9 8c 01 3d af 8e d4 3d 3e 39 b7 bd
       0.06438729 0.031628404 0.10378777 -0.08946465
0001b0 45 2f 04 3e 6b 57 83 3d bd 62 5f 3d 83 c1 bb 3d
       0.12908657 0.06413158 0.054537524 0.09167769
0001c0 58 af fc 3b 60 8c ec bd 04 1a 81 bd 14 e6 37 3e
       0.0077113323 -0.11550212 -0.0630379 0.17958862
0001d0 fb ca b3 ba 62 c3 a1 bd 35 02 45 3e f1 64 45 bd
       -0.0013717109 -0.078985944 0.19239123 -0.04819197
0001e0 2b 2d 3c 3e a6 34 2e 3e 9e ba 22 3c 44 f8 f1 3d
       0.18376605 0.17012271 0.009932188 0.11814931
0001f0 53 7b 25 3e cc 56 18 be 31 cc 74 bd a1 4c 15 3d
       0.16160326 -0.1487686 -0.059765045 0.036450032
000200 d9 e3 c7 3d b9 77 75 bd f0 13 d1 bd 01 dd 57 3e
       0.09760255 -0.05992863 -0.10208881 0.210804
000210 ab 14 f5 bc 5a d8 07 be f5 8b f3 3d 4f 29 41 bd
       -0.029917082 -0.13266125 0.11891929 -0.047158536
000220 b6 e6 e7 bc a5 fb 64 bc eb 56 2d 3e 16 25 a9 3d
       -0.028308254 -0.013976012 0.16927688 0.08259027
000230 30 8b 3f 3e 99 c1 19 bc 9e 5a 1e 3e 81 04 d6 bd
       0.1870544 -0.009384536 0.15464255 -0.10450078
000240 a0 fe fe 3d 84 09 f4 3c 28 a2 4f 3d b2 3e 1d 3e
       0.124509096 0.029789694 0.050691754 0.15355948
000250 ef 80 42 3d 61 6d 8e bd 68 36 72 bd a6 1a d1 3c
       0.047486242 -0.06954456 -0.059133917 0.025525402
000260 70 61 b2 bc 2f a9 cf 3d 64 85 92 bd a9 8c ac bd
       -0.021774977 0.10139691 -0.071543485 -0.08425266
000270 c3 e2 39 3e 8f 67 06 bd a3 ee 00 be f1 07 2d 3e
       0.18152909 -0.032813605 -0.12591033 0.1689756
000280 16 af 51 bd 17 0b 75 bb e9 6e c3 3d 4e 8d 33 3d
       -0.051192366 -0.0037390643 0.09542639 0.04383593
000290 3b c7 20 be d0 5f e8 3c e8 39 17 3e 84 ca 0e bc
       -0.15701 0.028366 0.14768183 -0.008715276
0002a0 97 c2 d9 3d 43 7c 06 3e 0d c6 45 3d b3 e9 0f be
       0.10632818 0.1313334 0.04828458 -0.14053993
0002b0 d2 41 f7 3d f8 f6 08 3e a6 a3 33 3d 75 02 98 bc
       0.12073101 0.13375461 0.04385724 -0.01855586
0002c0 98 68 e4 bd 63 c9 aa 3c bc 2d 7c bd 04 3b 0c 3e
       -0.11152762 0.020847982 -0.061567053 0.13694388
0002d0 d8 73 2e be 2c d8 17 3d 43 29 da bc 4b f8 35 bc
       -0.17036378 0.037071392 -0.026631003 -0.011106561
0002e0 d6 c0 ad bc 3e a8 95 3d 34 0d 10 be d7 16 0b 3c
       -0.021210115 0.0730748 -0.14067537 0.008489332
0002f0 ef 7f db bd 87 eb 4d 3d 1a f8 9e bc 0f 16 a4 3c
       -0.10717761 0.050273445 -0.019405413 0.02003005
000300 0c bc 9d 3d 9f c8 8f bd 56 56 0b be 5a cb ae bd
       0.07701883 -0.07020687 -0.13607153 -0.0853488
000310 9f 05 01 3e b2 1a ff bd 85 45 c2 3d 9f 48 86 bd
       0.125998 -0.124562636 0.09485916 -0.0655682
000320 94 68 7c bc 34 f2 52 3d e7 b6 89 bd 3d 62 00 be
       -0.015405793 0.051500514 -0.06724339 -0.12537475
000330 39 83 36 3d 5a 8e c3 3d eb 4d 31 3d 91 89 c0 bc
       0.044558737 0.09548636 0.0432872 -0.023503097
000340 74 8b 2b 3c 6e a5 64 3d eb f7 08 3d 57 fb cf bd
       0.01047026 0.05582183 0.033439558 -0.10155361
000350 55 54 ee 3d 8f 35 02 bd ec 6e 8f bd 44 60 6f bd
       0.11637179 -0.03178936 -0.070035785 -0.058441415
000360 77 a4 03 3c 39 58 db bd 1f 0f 05 be 0e 33 97 3d
       0.008034817 -0.107101865 -0.1299405 0.07382785
000370 1f 14 e7 3d 5c e6 1e be bc d4 d1 3d 1f 7e e1 bd
       0.11283135 -0.15517563 0.10245654 -0.11010384
000380 87 ba ca 3c 5b 50 0d 3e 33 c1 e1 bd 6b 27 b5 bd
       0.024747146 0.13800184 -0.11023178 -0.08845409
000390 1c ef 1b 3d 04 28 c8 bd 22 4a 99 bd ed bd 07 be
       0.03806983 -0.097732574 -0.07484843 -0.13256045
0003a0 6c 9a 09 ba 0e a5 a5 3d e4 da 2d 3c e2 aa 45 bd
       -0.0005249146 0.08088122 0.01061127 -0.04825867
0003b0 d0 93 11 3e 81 56 dd 3d f8 3c ca bd 78 42 74 3d
       0.14216542 0.10807515 -0.0987491 0.059633702
0003c0 2d 5d 06 bd 51 a3 6f 3d ba 39 dd 3c e6 96 95 3d
       -0.032803703 0.05850536 0.027005065 0.07304172
0003d0 76 d0 97 bd 29 13 9c bd 3a 27 aa bd a5 d5 b9 bd
       -0.07412808 -0.07620842 -0.08308263 -0.090739526
0003e0 7b 62 83 bd c6 e9 2e 3d 3c 71 3f 3d ff fb 43 3d
       -0.06415268 0.042703412 0.046738848 0.047847744
0003f0 0d 11 d4 3d f5 83 10 3e 15 d7 0b 3e 8b f2 d7 3d
       0.10354815 0.14112838 0.13656266 0.10544308

main.6.bias f4 [625]
000000 7a c8 0c 3c 6d 72 1a 3e 44 3a 56 bc 91 85 74 bb
       0.008592719 0.15082712 -0.013075415 -0.0037311057
000010 7a 35 19 3d b7 15 3e bd e7 e5 51 3d 93 33 e4 3d
       0.037404515 -0.046407428 0.051244643 0.111426495
000020 2d 8c fd 3d 6a b5 00 3e ce 08 75 bd 36 11 f1 3d
       0.12380252 0.12569204 -0.05982285 0.11770861
000030 e4 f2 c7 3d 87 cd 04 3e da fe 89 bd c2 53 e7 ba
       0.097631246 0.12969027 -0.06738062 -0.0017648863
000040 10 da 09 bd 7d 32 82 bd c2 eb 1b bd f5 70 20 3e
       -0.033655226 -0.06357286 -0.038066633 0.1566809
000050 84 9d e3 3d b6 07 0a be 39 a5 21 3e 4d 1e d7 bd
       0.11114028 -0.13479504 0.15785684 -0.10503826
000060 f1 7f 1c be a9 b7 01 3e 36 05 5d bc 5a 77 b7 3d
       -0.15283181 0.12667717 -0.013490012 0.089583114
000070 ab 4c 6f bd 76 8e fb bd 99 1e 8c bd 5c a1 a0 bd
       -0.058422726 -0.12283032 -0.068417735 -0.07843277
000080 32 88 b0 bc 67 46 5e bd e5 9f 2e 3e 46 d9 04 be
       -0.021549318 -0.05426636 0.17053182 -0.12973508
000090 d0 1d 93 3d 6f ad fb bd a1 2c b1 bc 22 c9 16 be
       0.07183421 -0.12288939 -0.021627726 -0.14725164
0000a0 89 6d ce bc 1d 08 13 bc 68 ec b8 3d a0 21 2e bd
       -0.025198715 -0.008974102 0.09029466 -0.042512536
0000b0 9b bc a6 bc 8f 0a fa 3d 5d 5b 60 3d 9f 0c a6 3d
       -0.020353606 0.12209045 0.05477463 0.08107876
0000c0 49 bb 3e bc c4 c5 a5 bd e2 df aa 3d f4 05 c8 bd
       -0.011641332 -0.080943614 0.083434835 -0.097667605
0000d0 be 52 8e bd ea 82 fe 3d e7 ae bd bd 90 37 b6 3d
       -0.069493756 0.124273136 -0.092618756 0.088973165
0000e0 a2 be d4 bb 2b c1 94 3d 4f 79 d6 bd 74 7f 95 bd
       -0.0064924518 0.07263406 -0.104723565 -0.072997004
0000f0 17 e4 26 bd 51 1e 8d bd 32 3a 92 bd a0 f4 3f 3d
       -0.040744867 -0.06890548 -0.07140006 0.046864152
000100 f6 08 96 bd 7d f6 16 3c 1c 42 6c ba 6e 3e b7 3c
       -0.07325928 0.009214041 -0.00090125366 0.022368636
000110 5b e9 fe 3c d4 28 23 3d fc 56 fe bd cb 4b 75 bc
       0.031117132 0.03983386 -0.12418935 -0.014971684
000120 05 d3 ed bc 24 cf a4 bd b1 5d 0c be b9 f1 3e 3c
       -0.029031286 -0.080473214 -0.13707615 0.011654311
000130 ae 72 d2 bd b2 de ca bd c7 a1 26 bd c3 5a 7d 3d
       -0.1027578 -0.09905757 -0.040681627 0.061854135
000140 72 7c 9a 3d d7 96 0b 3e 42 7e 16 be 9d 2e 07 bd
       0.07543267 0.1363176 -0.14696601 -0.03300344
000150 ef 02 14 3e 2d e7 d2 bd 02 52 b4 3d fe 48 26 be
       0.14454244 -0.102979995 0.08804704 -0.16238782
000160 76 9b b8 3d c8 85 94 3d 60 2b 0b 3c b5 ce b8 3c
       0.09014027 0.07252079 0.008494228 0.022559503
000170 3b 9b cf bd e5 30 b4 3d 8c 5f 80 bd 10 85 c5 3d
       -0.1013703 0.087983884 -0.06268224 0.0964452
000180 47 56 90 bd 3b 23 cb bd 7a f8 d2 bd 8b d4 24 3e
       -0.07047706 -0.09918829 -0.103012994 0.16096704
000190 05 5c 1b be 7e 07 e8 3d cb 43 27 3d ad 5a d4 3d
       -0.15171821 0.11329554 0.040836137 0.103688575
0001a0 b8 ff 14 be 91 ef a6 bd 5b 8e 56 bd 27 69 3f 3d
       -0.14550674 -0.081511624 -0.052381855 0.04673114
0001b0 ce cf 00 be eb 08 4c 3d aa a5 67 3b 24 11 f4 3d
       -0.12579271 0.049813192 0.0035346546 0.11917332
0001c0 b8 58 57 bd 29 d7 0b 3e 01 6b 76 bc e9 aa 0b 3a
       -0.052574843 0.13656296 -0.01504016 0.0005327897
0001d0 c5 0f cb bd 36 55 0c 3e f5 36 51 3d fb f0 ff 3d
       -0.09915117 0.1370438 0.0510778 0.12497135
0001e0 31 2e 5a bd 18 3d 32 bd 87 92 d3 3d df a8 fa 3d
       -0.053266708 -0.043515295 0.10330682 0.12239241
0001f0 a8 56 99 3c 68 dc 13 3e 93 82 07 be cb d2 78 bd
       0.018718079 0.14439547 -0.13233404 -0.060747903
000200 45 1d c1 bc a7 88 1e 3d 0d d0 6e 3d 21 b9 f9 bc
       -0.023573527 0.03870454 0.05830388 -0.030483784
000210 e0 f6 c8 3d 51 15 8b ba 0f 1f 0c 3d 62 0b f9 bd
       0.09812713 -0.0010611211 0.034209307 -0.12160374
000220 04 36 68 bd 73 68 27 3c c1 0b 0e bd ff f2 95 3d
       -0.05669214 0.010217774 -0.03467918 0.073217385
000230 db 9d 12 3e b4 2c 88 3d 7c a0 a1 bd e5 56 cd 3d
       0.1431803 0.066491514 -0.07891938 0.100263394
000240 10 d2 d1 bd 12 1a 0f 3e 87 b6 d0 bd 5b ae 08 be
       -0.10245144 0.13974789 -0.10191064 -0.13347761
000250 60 cb cf bc d2 db d3 bd d3 22 dd 3d 66 50 cc 3d
       -0.025365531 -0.10344662 0.10797658 0.09976272
000260 74 08 11 be d6 b6 68 3d 54 f0 7e 3d 7e 64 18 be
       -0.14163381 0.05681499 0.062240914 -0.14882085
000270 d1 d7 5a bc 84 ca 15 bd 8f 31 c3 3b 76 53 6a bb
       -0.013357119 -0.036570087 0.0059568356 -0.0035755313
000280 b1 17 d5 bd 44 c2 be 3d 7d 63 3a 3e e3 da d1 bd
       -0.104049094 0.09314397 0.18202014 -0.102468275
000290 26 97 05 3e 21 bc 14 be 59 25 44 bd 3c 5a 95 3d
       0.1304594 -0.1452489 -0.04788718 0.072926015
0002a0 f4 a6 c6 bd e7 c0 ad 3d 2a 1f 96 bd ba b5 b6 3d
       -0.096998125 0.08484059 -0.07330163 0.0892138
0002b0 0d 89 10 be 26 56 7a 3d 55 a5 14 be 82 4b a8 3d
       -0.1411478 0.061117314 -0.14516194 0.08217527
0002c0 72 56 f6 3d 05 82 04 3e 66 f4 05 be 2b da 72 3d
       0.12028207 0.12940224 -0.13081512 0.059290092
0002d0 23 61 ea b9 74 81 98 bd 8a 54 b7 3c 50 41 09 3d
       -0.0004470433 -0.07446566 0.022379179 0.033509552
0002e0 98 29 8e 3d 5b 44 60 3d 4a da ae bd 76 bc 21 bc
       0.06941527 0.05475269 -0.08537729 -0.009871593
0002f0 ec 91 f0 3a 3e 4b 1f 3b bc c7 2b bd c2 f5 05 be
       0.0018354035 0.0024306322 -0.04193853 -0.1308203
000300 30 6a 8e bc d6 67 d3 3d 60 56 88 bd 1e a2 06 3e
       -0.017384619 0.103225395 -0.066571 0.1314778
000310 0e e2 16 3e a5 b3 c7 bc fd 77 11 be 66 61 ad bd
       0.1473467 -0.024377653 -0.14205928 -0.08465843
000320 8f 56 a3 3c 4f 84 1e be 74 71 cc 3d 9e 90 6f bd
       0.019938735 -0.15480159 0.09982577 -0.058487527
000330 ce 3f f4 3c 8b f6 12 bd 0c 1a aa bd 0d d0 c6 bd
       0.02981558 -0.035879653 -0.08305749 -0.09707651
000340 a4 91 7f 3d 91 8f a3 3c 3d 0d 0a 3d ed 66 8c bd
       0.062394753 0.019965919 0.03370403 -0.06855569
000350 aa 8e 59 bd 0e 02 88 3d ef a0 4b bd 97 ba c2 bc
       -0.05311457 0.06641017 -0.049714025 -0.023770614
000360 d5 47 cc 3d 0f 40 17 be 8b 16 13 be 15 51 1c bd
       0.099746384 -0.1477053 -0.14364068 -0.038163263
000370 f9 71 22 be f8 80 89 3b 5c d1 a0 b8 5a 19 44 bd
       -0.1586379 0.0041962825 -7.668391e-05 -0.04787574
000380 3b df a1 3d cd f2 c4 bd 5e 7c a9 3d 70 e2 03 3e
       0.07903906 -0.09616623 0.08275674 0.12879348
000390 fd 91 e7 bd 8a 6a 70 bd f4 e4 c5 3d 50 8f cb 3d
       -0.11307142 -0.058695354 0.0966281 0.09939444
0003a0 c3 ef 8e bd c1 59 d8 3d d3 ba f7 3d e5 c1 30 bd
       -0.06979325 0.10563994 0.12096181 -0.043153662
0003b0 b6 ae 50 3d ab 04 82 bd 6c 7c ab 3c ee 71 36 bd
       0.050947867 -0.063485466 0.020933352 -0.044542246
0003c0 4c db 6a 3d 9c 68 93 bd 0c 8d a6 bd 3c ee 16 3b
       0.057338044 -0.07197687 -0.08132371 0.0023030182
0003d0 9c 51 a5 3c 0b 74 9c bb b5 fa c1 bd f8 b3 0d be
       0.020180516 -0.0047745756 -0.09471647 -0.13838184
0003e0 19 68 bc 3d fb 8b 0a bd 90 d1 6d 3c c4 54 ea 3d
       0.091995426 -0.033824902 0.014515296 0.11441949
0003f0 af 1f ad 3d 92 b4 2e 3e 1a cd ce 3d 06 e6 33 bd
       0.08453309 0.1706107 0.10097714 -0.04392054
