loss_curves/netG_50k_mlp_60df.pth (torch_old, 207487 bytes, 8 tensors)

main.0.weight f4 [60, 100]
0	0xbc309840	-0.010778487
1	0x3d91aeff	0.07113456
2	0xbdb9d30a	-0.09073456
3	0xbda33f14	-0.079710156
4	0xbcedb42a	-0.029016573
5	0x3cb8daf7	0.022565348
6	0x3c122af0	0.00892137
7	0x3dc2fa0e	0.095203504
8	0xbc19e432	-0.009392785
9	0x3c92dd57	0.017927809
10	0xbc15e07e	-0.009147761
11	0xbcadde71	-0.021224232
12	0xbdcd7bab	-0.100333534
13	0xbd92d56f	-0.071696155
14	0xbd8b21d8	-0.067935646
15	0x3caaad07	0.020834459
16	0x3d828759	0.06373472
17	0x3d93833c	0.07202765
18	0xbda6ef31	-0.08151091
19	0xbd519daf	-0.05117577
20	0x3d10c430	0.03534335
21	0x3dba6144	0.09100583
22	0xbc7d9b9e	-0.015478997
23	0x3db942cf	0.09045946
24	0xbb0c4540	-0.002140358
25	0x3cc09c03	0.023511892
26	0x3dbabac3	0.09117653
27	0xbdb8aab7	-0.09016936
28	0xbd8602be	-0.06543492
29	0xbcd2216e	-0.025650706
30	0xbd17f4a9	-0.03709856
31	0x3db40c4a	0.087914065
32	0xbda3ddf8	-0.080013216
33	0xbd5a35c8	-0.053273946
34	0xbd8d8342	-0.06909801
35	0xbdcb9d96	-0.099421665
36	0xbd955393	-0.07291331
37	0x3dc0e85e	0.094193205
38	0x3d1faaf7	0.038981404
39	0x3d81378c	0.06309423
40	0x3cd4bc75	0.02596877
41	0xbd794c3d	-0.060863722
42	0x3c40f3c0	0.0117768645
43	0xbdcc20e7	-0.09967213
44	0xbda99f7c	-0.08282372
45	0xbd728f0c	-0.05921845
46	0x3d6fc192	0.058534212
47	0x3d8bc764	0.0682514
48	0xbd319df5	-0.04336353
49	0x3c5aaa13	0.013346213
50	0x3d6a68c4	0.05722882
51	0x3dc78c19	0.097435184
52	0x3cfedcd6	0.031111162
53	0x3c2f0a89	0.010683664
54	0x3d79872e	0.060919933
55	0xbd93836e	-0.072028026
56	0x3cdc36d7	0.026881618
57	0xbdc3deb8	-0.095639646
58	0xbd8d07c0	-0.06886244
59	0xbd7f4dff	-0.062330242
60	0x3d8a481f	0.06752037
61	0x3d42b826	0.0475389
62	0xbd93af7a	-0.07211204
63	0x3d027bf3	0.03185649
64	0x3d5ede25	0.054411072
65	0xbcbbcad3	-0.022923863
66	0x3c387789	0.011258968
67	0x3cfb15c8	0.030650035
68	0x3d998fea	0.074981526
69	0x3dda2271	0.106511004
70	0xbdbbf1e7	-0.091769986
71	0xbd1a1971	-0.03762192
72	0x3d369d19	0.044583414
73	0x3dbaba08	0.09117514
74	0x3dd9959a	0.10624237
75	0x3df308a8	0.118668854
76	0xbbc6d061	-0.006067321
77	0xbdc4cb01	-0.096090324
78	0xbbbd5e82	-0.0057790885
79	0xbd965bdf	-0.07341742
80	0xbdca6876	-0.098832056
81	0x3dc9287b	0.09822174
82	0x3dd9c3b1	0.10633028
83	0xbdd8863b	-0.105724774
84	0x3cb8a5e2	0.022540037
85	0xbc6a4053	-0.014297563
86	0xbc7818a9	-0.015142598
87	0xbd39295f	-0.04520547
88	0x3d422838	0.047401637
89	0xbda3909a	-0.07986565
90	0x3d0f920c	0.03505139
91	0x3d676df4	0.056501344
92	0x3d9a978d	0.07548437
93	0x3ca0f55a	0.019648243
94	0xbde6f4e1	-0.11277176
95	0xbda10ddd	-0.07863972
96	0x3d80d18e	0.062899694
97	0x3ce017a1	0.027355017
98	0xbda9c316	-0.08289163
99	0xbd88ecbf	-0.06685781
100	0x3db8930a	0.090124205
101	0x3db3fb8a	0.08788212
102	0xbd201a86	-0.039087795
103	0xbc9c7b0a	-0.019101638
104	0xbdad035b	-0.08447906
105	0xbc8896c6	-0.016673457
106	0xbd94fe79	-0.07275099
107	0xbdb7f173	-0.089816
108	0xbc0d0c33	-0.008608866
109	0xbbb5b24f	-0.0055449377
110	0xbcd578b8	-0.02605854
111	0x3d87e374	0.0663518
112	0xbd77b0c7	-0.060471322
113	0x3de5aa75	0.11214153
114	0x3d7cdf39	0.06173632
115	0xbd9bc7cd	-0.07606468
116	0xbc133474	-0.008984674
117	0x3c34814a	0.011017153
118	0x3c5b56fc	0.013387438
119	0x3caf7470	0.021417826
120	0x3d13efab	0.036117237
121	0x3b04b90d	0.00202519
122	0xbd333061	-0.04374731
123	0x3d751a2f	0.059839424
124	0xbdd39242	-0.10330631
125	0xbd65101d	-0.05592357
126	0xbd4c2073	-0.049835633
127	0xbd139f57	-0.03604063
128	0xbce30dd0	-0.027716547
129	0xbdbe7266	-0.092991635
130	0xbc9c19d5	-0.019055286
131	0x3cc4baf3	0.024014926
132	0xbd9f3242	-0.07773258
133	0xbb0ffa37	-0.0021969208
134	0x3dbc2592	0.091868535
135	0xbc288554	-0.010285694
136	0xbc0755f6	-0.008260241
137	0xbc7aa22c	-0.015297454
138	0x3c599933	0.013281154
139	0x3db1b27a	0.0867662
140	0x3e054cc4	0.13017565
141	0x3da4cb45	0.08046583
142	0x3dc6475a	0.09681578
143	0xbb22a507	-0.0024817602
144	0xbdc69762	-0.09696843
145	0xbd4f67e2	-0.05063618
146	0x3d6c8895	0.057747442
147	0xbb91bba4	-0.0044474173
148	0xbd2c36e9	-0.042044554
149	0xbd8e1277	-0.06937116
150	0xbdee120c	-0.11624536
151	0xbdde04ca	-0.10840757
152	0xbcde8096	-0.027160924
153	0x3d9063b5	0.070502676
154	0x3d105c47	0.035244253
155	0xbde02701	-0.109449394
156	0x3d93320f	0.07187282
157	0xbdb98cbd	-0.09060047
158	0xbc9970dd	-0.018730575
159	0xbd5af0e3	-0.053452384
160	0xbc1834a3	-0.009289893
161	0xbc3f8090	-0.0116883665
162	0xbde2c71b	-0.110731326
163	0xbdbfb0d1	-0.09359897
164	0xbcb4368b	-0.021998664
165	0xbb15814a	-0.0022812658
166	0xbd4e3a24	-0.050348416
167	0x3d5faccd	0.054608155
168	0xbdcb1f31	-0.09918059
169	0xbc76ef5c	-0.015071716
170	0x3dc38cbf	0.095483296
171	0xbd409e4e	-0.04702597
172	0x3dcb9450	0.09940398
173	0x3cd2a322	0.025712553
174	0xbdbdddbc	-0.09270808
175	0x3db36436	0.08759348
176	0xbd200d00	-0.039074898
177	0xbd34ede2	-0.044172175
178	0x3d968dc6	0.0735126
179	0xbdcc9dec	-0.09991059
180	0x3c8470ff	0.016167162
181	0xbcd3484f	-0.025791315
182	0x3dbda961	0.09260822
183	0x3d35125d	0.044206966
184	0x3d62bd61	0.055356387
185	0x3d402e1e	0.04691898
186	0xbce5018e	-0.027954843
187	0xbc960993	-0.018315112
188	0xbdb529ad	-0.0884584
189	0x3d51f6f1	0.051260892
190	0x3dafb340	0.08579111
191	0x3d935f98	0.071959674
192	0xbdb8283b	-0.08992048
193	0xbbef345b	-0.0072999424
194	0xbdb080ca	-0.086183146
195	0xbd616aae	-0.05503338
196	0xbd82adae	-0.06380783
197	0x3d4cbde1	0.04998577
198	0xbd5e87de	-0.05432879
199	0xbac59482	-0.0015074166
200	0xbc4276ab	-0.011869113
201	0x3db51e3b	0.08843657
202	0xbdabc38e	-0.083869085
203	0xbd97a28f	-0.074040525
204	0xbd475d44	-0.04867293
205	0x3d920154	0.071291596
206	0xbd0f88eb	-0.035042685
207	0x3dc983e7	0.098396115
208	0x3d0e7086	0.03477528
209	0x39d83c28	0.0004124355
210	0x3ca41067	0.020027352
211	0xbc8bd551	-0.01706949
212	0x3c9c1f97	0.019058032
213	0xbc85a95f	-0.016316114
214	0xbbc3ad62	-0.0059715966
215	0x3cfc105b	0.030769518
216	0xbd8da5e2	-0.06916405
217	0xbd813143	-0.06308224
218	0x3dad239e	0.08454059
219	0xbdcde3ef	-0.100532405
220	0xbc6cf29b	-0.0144621385
221	0x3de7dbe6	0.11321239
222	0x3d399b3d	0.045314062
223	0x3c13968a	0.009008059
224	0xbdc1872a	-0.094496086
225	0x3d847087	0.064667754
226	0xbdb4edde	-0.08834432
227	0xbc9f53db	-0.019449165
228	0xbc909c08	-0.017652526
229	0xbc240d50	-0.01001294
230	0xb8be1e50	-9.065552e-05
231	0x3dc2d2d0	0.095128655
232	0x3c180510	0.009278551
233	0x3dd4cbde	0.10390447
234	0x3dae1150	0.08499396
235	0xbd807095	-0.06271473
236	0x3d5b917a	0.053605534
237	0xbdab60db	-0.08368083
238	0xbd68e9e9	-0.0568637
239	0x3d29251d	0.04129516
240	0x3d866833	0.06562843
241	0x3daefa67	0.08543854
242	0xbd4a2934	-0.0493557
243	0xbb6ae334	-0.003584099
244	0x3d764416	0.060123526
245	0xbde94be2	-0.113914266
246	0x3d8d76b3	0.06907406
247	0xbdcecf0d	-0.100980856
248	0x3c2c104f	0.010501935
249	0xbc9246bf	-0.017856
250	0xbd9779bd	-0.073962666
251	0x3ba96913	0.0051699965
252	0x3da909bf	0.08253812
253	0xbd1f5e35	-0.038908202
254	0xbdc095e1	-0.09403587
255	0xbd30cd9c	-0.043164834

main.0.bias f4 [60]
0	0x3e300147	0.17187987
1	0x3c674935	0.014116575
2	0x3c061904	0.008184675
3	0x3df09096	0.117463276
4	0x3cce0a47	0.025151385
5	0x3d7ca5a7	0.061681416
6	0x3e454525	0.19264658
7	0x3dea8b48	0.11452347
8	0xbce365d2	-0.027758513
9	0x3d8dc63f	0.06922578
10	0x3daf10d7	0.08548134
11	0x3e35ebef	0.17765783
12	0xbcd5d12a	-0.026100714
13	0x3e07f99f	0.13278817
14	0xbd012f74	-0.031539395
15	0xbd42ab2d	-0.047526527
16	0x3cee243f	0.029070018
17	0xbdc925b1	-0.09821642
18	0x3d50d100	0.050980568
19	0x3e2818bb	0.16415684
20	0x3d11d456	0.03560289
21	0xbc6a831b	-0.014313485
22	0x3d6ff904	0.05858709
23	0xbc6d4e41	-0.014483989
24	0x3e11ef49	0.14251436
25	0x3db39539	0.08768696
26	0x3e1dff8a	0.15429512
27	0x3dfdc566	0.123911664
28	0x3d6ec8df	0.058297034
29	0x3ddb17ab	0.10697874
30	0x3e332538	0.17494667
31	0x3be19bee	0.0068850433
32	0x3bc25be5	0.005931365
33	0x3e201d29	0.15636124
34	0x3df66f81	0.120329864
35	0x3e21af5d	0.15789552
36	0x3dc0d56a	0.094157055
37	0x3d9e96ce	0.077436075
38	0x3dff682e	0.124710426
39	0x3e0c7044	0.13714701
40	0x3ddfd01a	0.10928364
41	0x3bd2a0dd	0.006427868
42	0x3d9d548a	0.0768214
43	0xbbafefb4	-0.005369151
44	0x3dc03570	0.093851924
45	0x3e02a0ab	0.12756602
46	0x3d2807a9	0.04102293
47	0x3e181568	0.14851916
48	0x3e266a67	0.16251527
49	0x3dac38cc	0.08409271
50	0xbca200ee	-0.019775834
51	0x3d9c6dd0	0.076381326
52	0x3e14ef14	0.14544326
53	0x3d621168	0.05519238
54	0x3df9ebf8	0.122032106
55	0x3db93f6f	0.09045302
56	0x3c46d492	0.012135642
57	0x3e1c8f4d	0.1528904
58	0x3dd9c4f8	0.10633272
59	0x3e0ab6c5	0.13546284

main.2.weight f4 [60, 60]
0	0xbd6d9921	-0.058007363
1	0xbd9c9153	-0.07644906
2	0x3ddd0e57	0.10793751
3	0x3d73efe6	0.059554957
4	0x3dfd0e11	0.123561986
5	0xbdc63baa	-0.09679349
6	0xbd08de2d	-0.03341501
7	0x3c94ab1a	0.018147994
8	0xbd32aa4c	-0.04361944
9	0x3db5e751	0.08882011
10	0x3de9fb4d	0.11424885
11	0x3e13ad24	0.14421517
12	0x3d3e37f7	0.04644009
13	0xbdb96184	-0.09051803
14	0xbd0e5c70	-0.034756124
15	0x3d8dabb2	0.06917514
16	0xbbe10aad	-0.0068677277
17	0x3d9e1830	0.07719457
18	0xbc1b9637	-0.009496263
19	0x3e127a1e	0.14304397
20	0x3e0e418e	0.13892195
21	0x3e16bd0a	0.1472055
22	0x3d8637d9	0.06553621
23	0xbd8f06e2	-0.06983735
24	0xbb72926b	-0.0037013541
25	0xbd5a0ef3	-0.053236913
26	0x3d8c29fd	0.06843946
27	0x3c0f6f1a	0.008754516
28	0x3daba034	0.08380166
29	0x3d82744e	0.063698396
30	0xbc840120	-0.016113818
31	0x3d1039db	0.035211425
32	0xbbda00fc	-0.0066529494
33	0x3d58435c	0.052798614
34	0xbd858b77	-0.065207414
35	0x3cc141bf	0.02359092
36	0x3dcd9d87	0.100398116
37	0x3d935be8	0.07195264
38	0xbd7fa6a7	-0.06241479
39	0x3df9a74b	0.12190112
40	0xbcf1e1c7	-0.029526604
41	0x3e00ae40	0.12566471
42	0xbbe96b8d	-0.0071234168
43	0x3e11911e	0.14215514
44	0x3dc28b16	0.09499185
45	0x3c52db79	0.012869709
46	0x3dccf14d	0.10006962
47	0x3e067fc5	0.13134678
48	0xbda9b7b3	-0.08286991
49	0x3d7d94c3	0.06190945
50	0x3dbf0ff9	0.093292184
51	0x3c0ec22c	0.008713286
52	0x3dcf3231	0.10116995
53	0x3e0b4b58	0.1360296
54	0xbd5a2ea6	-0.053267144
55	0x3db59046	0.088654086
56	0xbdd4e46f	-0.10395133
57	0x3ddb5724	0.1070998
58	0xbd75127d	-0.059832085
59	0xbcd11354	-0.025521912
60	0x3d6b3e1e	0.057432286
61	0xbdad48d8	-0.084611595
62	0x3ca7c9af	0.020481912
63	0xbcb1316f	-0.021630017
64	0x3d629ab8	0.055323333
65	0x3ca78e2f	0.02045354
66	0xbd9efa5f	-0.07762598
67	0xbc6be97f	-0.0143989315
68	0x3d3c7c67	0.046017077
69	0x3dc0b1ce	0.094089136
70	0xbd303d3b	-0.043027144
71	0xbd5423e8	-0.051792055
72	0x3d9ee4f9	0.07758517
73	0xbd2a0058	-0.041504234
74	0xbcde8106	-0.027161133
75	0xbdc313de	-0.09525274
76	0xbc50d229	-0.012745419
77	0xbd920f89	-0.07131869
78	0x3d33e12c	0.043915913
79	0x3e055699	0.13021316
80	0x3d994377	0.07483571
81	0xbd82ba61	-0.06383205
82	0x3e0baa49	0.13639177
83	0xbdaef309	-0.08542449
84	0xbcc8a916	-0.024494689
85	0x3dada22f	0.084782
86	0x3d99604a	0.07489069
87	0x3db74732	0.08949126
88	0x3a04ad35	0.000506121
89	0xbdaa9d9e	-0.08330844
90	0xbdb4b0ee	-0.08822809
91	0x3d058fd5	0.032607872
92	0xbdcab860	-0.09898448
93	0xbd654cd3	-0.05598147
94	0x3df039cf	0.11729776
95	0xb93d86cc	-0.0001807466
96	0x3d888307	0.066656165
97	0xbd69f2e2	-0.057116397
98	0x3d313d44	0.043271318
99	0x3df663f7	0.120307855
100	0x3d420dc0	0.047376394
101	0x3d534064	0.05157508
102	0xbd6c4edc	-0.057692394
103	0xbd84605f	-0.06463694
104	0x3ddb413f	0.10705804
105	0xbd9a3c63	-0.07531049
106	0x3c7a1406	0.015263563
107	0xbd80452b	-0.06263193
108	0x3d0190b3	0.031632137
109	0xbdbca0c1	-0.09210349
110	0x3d50b0f9	0.050950024
111	0x3cd777ff	0.026302336
112	0xbd6dd7c1	-0.058067087
113	0xbce335fb	-0.0277357
114	0xbcd3b9e4	-0.025845475
115	0xbcd17648	-0.025569096
116	0xbbbb4b1d	-0.0057157413
117	0x3d817d0c	0.06322679
118	0xbd3c2ad2	-0.045939274
119	0x3d8f412a	0.06994851
120	0xbdc795a4	-0.097453386
121	0x3e09727e	0.13422582
122	0xbd94d9e4	-0.07268122
123	0x3d7b6cbe	0.061383
124	0xbdb757c3	-0.08952286
125	0xbda72063	-0.08160474
126	0xbc450d28	-0.0120270625
127	0xbd937b51	-0.07201255
128	0xbd00405e	-0.031311385
129	0xbd51d383	-0.051227104
130	0xbcd85b65	-0.026410768
131	0xbdc16e6d	-0.0944489
132	0x3e07ee00	0.13274384
133	0x3dab3abc	0.08360812
134	0xbd2909f8	-0.041269273
135	0x3dd27b08	0.102773726
136	0xbd5ec6a3	-0.054388653
137	0xbdcdeff5	-0.10055534
138	0x3d4924dc	0.049107417
139	0xbd17d5b6	-0.037069045
140	0x3dcbebe5	0.09957103
141	0xbcbd1d8b	-0.023085376
142	0xbdd1f2e7	-0.10251408
143	0x3dece13a	0.11566396
144	0x3d082b5c	0.033244476
145	0x3d28f8cf	0.041252907
146	0xbc25e56e	-0.010125501
147	0xbdca53a2	-0.09879233
148	0x3d5247ed	0.051338125
149	0x3bcc6bf8	0.006238457
150	0xbda21e84	-0.07915977
151	0x3da73bae	0.0816568
152	0xbdeab8d0	-0.114610314
153	0xbd904fa8	-0.07046443
154	0xbca020d0	-0.019546896
155	0xbdedde85	-0.11614708
156	0xbde8d0a2	-0.113679186
157	0xbd0efa65	-0.034906764
158	0xbc9c7ff7	-0.019103987
159	0x3dc2b2d2	0.095067635
160	0x3d80aa72	0.0628251
161	0x3dffc6cf	0.124890916
162	0x3d42a24d	0.047518063
163	0x3ccf91d0	0.025338084
164	0xbc7fce3b	-0.015613134
165	0xbd42a794	-0.047523096
166	0xbde1aa5a	-0.1101882
167	0xbdde71de	-0.10861562
168	0x3d785e59	0.060636852
169	0xbd963e9d	-0.07336161
170	0xbd4fe589	-0.05075601
171	0x3d897317	0.06711405
172	0xbd98333c	-0.07431647
173	0x3d5e1014	0.054214552
174	0x3a82b206	0.0009971268
175	0x3d17c607	0.037054088
176	0xbd5f9b98	-0.054591745
177	0x3dd94a85	0.106099166
178	0xbdd024e5	-0.10163287
179	0xbdd9b79a	-0.10630722
180	0x3def0101	0.11670113
181	0xbd89f26d	-0.06735692
182	0x3e14018b	0.14453714
183	0x3d938c68	0.07204515
184	0x3d9e1138	0.07718128
185	0xbb753c1a	-0.0037419857
186	0x3d4eef4c	0.05052118
187	0x3d58cf79	0.052932236
188	0xbd14db7f	-0.03634214
189	0x3dd65f06	0.10467343
190	0x3dbb5266	0.09146576
191	0x3d1a5061	0.03767431
192	0x3d80eec4	0.06295541
193	0x3c28392e	0.010267539
194	0xbd08d8a7	-0.03340974
195	0xbd8293d7	-0.063758545
196	0xbcc512f4	-0.02405689
197	0xbdd1c411	-0.10242475
198	0xbc96a2f4	-0.018388249
199	0x3dd0018a	0.101565436
200	0x3e1aa0e6	0.1510044
201	0xbdc6f57a	-0.0971479
202	0xbdb04be7	-0.08608227
203	0x3dfa118a	0.122103766
204	0xbc8c9b8e	-0.017164018
205	0x3c60591f	0.013693123
206	0x3dbbc3d8	0.091682136
207	0x3e09854f	0.1342976
208	0x3da37505	0.07981304
209	0x3d70c957	0.058785763
210	0x3cae4469	0.021272855
211	0x3cb23005	0.021751413
212	0x3d82e7b5	0.06391851
213	0xbdba42cb	-0.09094771
214	0xbdd1f5a6	-0.10251932
215	0x3ddd063d	0.107922055
216	0xbdfa2064	-0.12213209
217	0x3da1aba5	0.07894067
218	0x3de5e277	0.11224835
219	0x3dc89f1b	0.09795972
220	0x3d752ff1	0.059860174
221	0x3cd8d889	0.02647044
222	0x3da3909e	0.07986568
223	0x3dbf2c7c	0.093346566
224	0x3cbe6986	0.023243677
225	0xbd8f7547	-0.07004791
226	0x3dc0b50f	0.09409534
227	0x3d1634e5	0.036671538
228	0x3dc27cfb	0.094964944
229	0xbd4fc93b	-0.050729018
230	0xbcdc6484	-0.026903398
231	0xbd7a5a1a	-0.061121084
232	0x3cd53da6	0.026030373
233	0x3e12477c	0.14285082
234	0x3d8de394	0.06928173
235	0x3e0352cd	0.12824555
236	0x3de2fbfd	0.11083219
237	0xbd80cf18	-0.062895
238	0x3e0c16ed	0.1368062
239	0x3cb5f0ba	0.022209514
240	0x3e059675	0.13045676
241	0x3d45751b	0.048207384
242	0x3b0f9e19	0.0021914302
243	0x3e04c782	0.12966731
244	0xbd90b72d	-0.07066188
245	0x3ce168f2	0.027515862
246	0x3c70ce73	0.014697659
247	0x3cf50c8f	0.029913215
248	0xbc01479a	-0.007890606
249	0x3df8bc0d	0.12145243
250	0x3c8ae3a7	0.016954256
251	0x3dae1100	0.08499336
252	0x3da629d0	0.08113444
253	0x3e13fa1d	0.1445088
254	0x3d833b7f	0.06407832
255	0xbdc7d3ff	-0.09757232

main.2.bias f4 [60]
0	0x3e14a619	0.14516486
1	0x3e400d09	0.18754973
2	0xbdbf8dbd	-0.09353206
3	0x3dd441f6	0.103641436
4	0x3d94b052	0.07260193
5	0x3e02f71c	0.12789577
6	0x3dd114f5	0.10209075
7	0x3d926992	0.07149042
8	0x3e0e0dfa	0.13872519
9	0xba1e0de0	-0.0006029289
10	0xbd52227b	-0.051302414
11	0xbdcdbad1	-0.10045398
12	0x3e17b3f8	0.14814746
13	0x3d97492c	0.07387003
14	0xbd25e49f	-0.040501233
15	0x3df5f9fb	0.120105706
16	0x3d88c8f1	0.066789515
17	0xbce1b00b	-0.027549764
18	0x3e255cde	0.16148707
19	0x3dfa9440	0.12235308
20	0x3e360d2e	0.17778465
21	0x3d58c9d1	0.052926842
22	0xbc9b812b	-0.01898249
23	0xbd605c03	-0.05477525
24	0x3d822eec	0.06356606
25	0xbd03e351	-0.032199208
26	0x3d98f45a	0.07468481
27	0xbdda438b	-0.10657414
28	0xbdbd22a5	-0.092351235
29	0x3db98dbb	0.09060236
30	0x3daafd9b	0.08349153
31	0x3d0078a1	0.03136504
32	0x3cbd1a69	0.023083882
33	0xbba47630	-0.005018972
34	0xbd4bc21d	-0.049745668
35	0x3dd0f10e	0.102022275
36	0xbd8fc1ee	-0.07019411
37	0x3c4f36b2	0.012647318
38	0x3d8e492b	0.069475494
39	0x3da69c96	0.08135335
40	0x3e1efcc7	0.15526114
41	0xbd3ed57d	-0.046590317
42	0x3dd68738	0.1047501
43	0x3df340cd	0.11877594
44	0x3dc006e7	0.093763165
45	0x3d2a9521	0.041646127
46	0x3e1421ce	0.1446602
47	0xbcab4ca0	-0.020910561
48	0x3c91a649	0.017779486
49	0xbcdd5e3c	-0.027022474
50	0x3d0c60bb	0.034271937
51	0xbd8c9361	-0.06864048
52	0x3deb2af0	0.11482799
53	0x3e100451	0.14064147
54	0xbd659bc8	-0.056056768
55	0x3d57b43c	0.05266212
56	0xbd31a5ef	-0.043371137
57	0x3b922c17	0.0044608223
58	0x3d8b1545	0.06791166
59	0x3e32f6d8	0.17476976

main.4.weight f4 [60, 60]
0	0x3df7d646	0.12101416
1	0x3dbc161e	0.09183906
2	0x3c176097	0.009239337
3	0xbdc5dab8	-0.09660858
4	0xbc9596b5	-0.01826034
5	0x3e1889c3	0.14896302
6	0x3d353ad6	0.044245563
7	0x3a0308fa	0.0004998591
8	0xbcc7987b	-0.0243647
9	0x3da4fd86	0.08056168
10	0x3dbfbffc	0.0936279
11	0xbc9ac682	-0.018893484
12	0x3d81c8c4	0.06337121
13	0x3dff1561	0.124552496
14	0x3dbc5588	0.09196001
15	0x3db520a9	0.0884412
16	0x3ddefd91	0.10888208
17	0x3d99f34d	0.07517109
18	0x3d7f43a0	0.06232035
19	0xbdd64182	-0.104617134
20	0x3b834acd	0.0040067197
21	0xbcb9b19f	-0.022667704
22	0x3d524db9	0.051343653
23	0xbd172cd3	-0.036907982
24	0xbdca10b0	-0.09866464
25	0x3dfa6303	0.12225916
26	0xbd374b90	-0.044749796
27	0xbe16ce8b	-0.14727227
28	0xbd88e3bf	-0.06684064
29	0x3d4633bf	0.048389193
30	0xbbf15a80	-0.007365525
31	0xbdddd513	-0.10831656
32	0x3d917173	0.07101717
33	0x3d6514fb	0.05592821
34	0x3de5b4b4	0.11216107
35	0xbdd5eca2	-0.10445525
36	0xbb472e80	-0.0030392706
37	0xbd08242d	-0.033237625
38	0xbce27ddb	-0.027647903
39	0x3d06aa64	0.03287734
40	0x3e1c6d23	0.15276007
41	0xbbafeafe	-0.0053685894
42	0x3e127a2d	0.14304419
43	0x3d1e23bf	0.03860831
44	0xbd3c174d	-0.04592066
45	0x3a5d807a	0.00084496255
46	0x3dab0083	0.08349707
47	0x3da9406f	0.08264243
48	0xbcf0a59f	-0.02937585
49	0xbc8eed0e	-0.01744702
50	0xbdab409e	-0.08361934
51	0xbdb2325e	-0.08701013
52	0xbcdb92c9	-0.026803391
53	0x3dd0d684	0.101971656
54	0x3cbda013	0.023147618
55	0x3dc903be	0.09815167
56	0xbdb58c05	-0.08864597
57	0x3d1c957b	0.038228493
58	0xbd98c0cc	-0.07458648
59	0xbafc0166	-0.0019226491
60	0x3dcfb9f9	0.10142893
61	0x3b840ab5	0.0040295967
62	0xbdc5e717	-0.096632175
63	0xbe056131	-0.13025357
64	0xbd2b9d6a	-0.04189817
65	0xbd5cc079	-0.053894494
66	0xbdfca12c	-0.123354286
67	0x3d89fd53	0.06737771
68	0x3822261e	3.865931e-05
69	0xbcbbb231	-0.022912117
70	0x3dc68076	0.09692471
71	0xbdfbf431	-0.12302435
72	0x3d1a5d6f	0.03768676
73	0x3dc130f8	0.09433168
74	0x3cde074c	0.027103089
75	0x3d86aa65	0.06575469
76	0xbd4bed61	-0.04978693
77	0xbdf94b61	-0.121725805
78	0x3def8cd1	0.116967805
79	0xbe05d02d	-0.13067694
80	0xbd62f679	-0.055410836
81	0x3deb2dd5	0.11483351
82	0xbd874583	-0.06605055
83	0xbcf12913	-0.029438531
84	0xbd899def	-0.067195766
85	0x3cc4ffe5	0.024047801
86	0xbd42bbff	-0.04754257
87	0x3d4a5554	0.04939778
88	0x3e001e0a	0.12511459
89	0xbdcd7596	-0.10032193
90	0x3da5ab08	0.08089262
91	0xbd15d8dd	-0.03658377
92	0xbe0584a3	-0.13038878
93	0x3d598e0c	0.053113982
94	0xbdb1acb6	-0.0867552
95	0x3d942c9c	0.07235071
96	0xbccdb9d6	-0.025113028
97	0xbda56f78	-0.080779016
98	0xbdeb229e	-0.11481212
99	0x3cc63cae	0.024198856
100	0xbe038758	-0.12844598
101	0x3d88ea24	0.06685284
102	0x3d3705bb	0.0446832
103	0xbde60ed7	-0.11233299
104	0x3d857778	0.065169275
105	0xbdd3b5ba	-0.10337396
106	0x3c28678a	0.010278592
107	0xbd276cfe	-0.040875427
108	0x3daa9612	0.08329405
109	0xbde4b0e0	-0.11166549
110	0xbd27bf25	-0.040953774
111	0xbd3ec4cb	-0.046574395
112	0xbc4a87cb	-0.012361477
113	0x3c17b1bd	0.009258685
114	0xbda77a90	-0.08177674
115	0x3c5e54cc	0.013570022
116	0x3b8c4332	0.0042804712
117	0xbd8c7e3a	-0.06860013
118	0x3cdc285c	0.026874714
119	0x3db9b6b4	0.09068051
120	0x3d869d3e	0.0657296
121	0x3d2a78f0	0.04161924
122	0xbd68e656	-0.05686029
123	0xbdc07502	-0.093973175
124	0x3d9d8c6f	0.07692801
125	0x3c9eaeed	0.01937052
126	0x3c1ab555	0.009442647
127	0x3d85378b	0.065047346
128	0xbd736078	-0.05941817
129	0xbe03b98f	-0.12863754
130	0xbdb53c83	-0.08849432
131	0xbdf8bfeb	-0.121459804
132	0x3da3619e	0.079776034
133	0x3da02ece	0.07821427
134	0xbd723823	-0.059135567
135	0xbcf2ae28	-0.02962406
136	0xbcdd22d9	-0.026994156
137	0xbd573552	-0.052541085
138	0xbdb67892	-0.08909716
139	0x3d23c993	0.039987158
140	0xbd3cad11	-0.046063486
141	0xbdac4350	-0.08411276
142	0x3cc24b62	0.023717586
143	0xbd562226	-0.05227866
144	0x3cce63f9	0.025194155
145	0xbb9fe6a7	-0.004879791
146	0x3d2a848c	0.041630313
147	0x3dad32eb	0.084569775
148	0xbde88d81	-0.11355115
149	0xbd7df093	-0.061997008
150	0x3e017039	0.12640466
151	0x3bb8e7f7	0.0056428867
152	0xbcb071a6	-0.021538567
153	0x3dcfa5dc	0.10139057
154	0x3de56af8	0.11202043
155	0x3d377caa	0.044796623
156	0xbdd06269	-0.1017502
157	0x3dfab1c3	0.122409366
158	0xbdf03ca8	-0.11730319
159	0xbe03cf48	-0.1287204
160	0x3c9bd662	0.019023124
161	0xbd1c582e	-0.038170032
162	0xbdf71c55	-0.12065951
163	0x3dcc55f6	0.09977333
164	0x3c78a8eb	0.015176992
165	0xbd8e0846	-0.06935172
166	0x3d377246	0.044786714
167	0x3dc07fa0	0.093993425
168	0xbc659b6b	-0.014014105
169	0x3dc1d39d	0.0946419
170	0x3da2a456	0.07941501
171	0x3cb38a22	0.021916453
172	0xbd8c4c40	-0.06850481
173	0xbdca29f7	-0.098712854
174	0xbaf6b27b	-0.0018821502
175	0xbd0e0c26	-0.034679554
176	0xbdef0d93	-0.11672511
177	0xbdf854be	-0.12125538
178	0xbda8f0db	-0.082490645
179	0x3af3619d	0.001856852
180	0xbb23d538	-0.0024998914
181	0xbd6b4457	-0.05743822
182	0xbc675c6d	-0.014121157
183	0xbbf920e3	-0.0076027974
184	0x3c8672f9	0.016412245
185	0x3e08863f	0.13332461
186	0x3e0c5f11	0.1370814
187	0x3e0baa26	0.13639125
188	0x3e374375	0.17896827
189	0x3d536c77	0.051617112
190	0xbcfe28f6	-0.031025391
191	0x3c3427ef	0.010995849
192	0x3d983329	0.07431633
193	0xbb2ef606	-0.0026696934
194	0x3e0c3d5e	0.13695285
195	0x3df3474e	0.11878835
196	0xbd2d0da5	-0.04224934
197	0x3d526c59	0.05137286
198	0x3d88560f	0.066570394
199	0x3dbae581	0.09125806
200	0xbd0d9ee1	-0.034575347
201	0x3e32dce8	0.17467082
202	0x3b44ecca	0.0030048364
203	0x3dad779b	0.084700786
204	0xbc823aea	-0.015897233
205	0x3dae312c	0.085054725
206	0xbc090537	-0.00836306
207	0xbd8c50d9	-0.06851358
208	0xbdcf483d	-0.101212
209	0x3dc11cfd	0.09429357
210	0x3d983919	0.074327655
211	0x3db38f7e	0.08767603
212	0xbcb70b82	-0.022344355
213	0x3d894bf7	0.06703942
214	0xbd031b2f	-0.032008346
215	0x3db1c18b	0.086794935
216	0x3e1ee793	0.15518026
217	0xbd83e25a	-0.064396575
218	0x3dcd742d	0.100319244
219	0xbcec3355	-0.02883307
220	0x3dc929c7	0.098224215
221	0x3c55aa9f	0.0130411675
222	0x3ddcbfb1	0.1077875
223	0xbd35478b	-0.04425768
224	0x3e114d5f	0.14189671
225	0x3dee428b	0.11633786
226	0xbd163f62	-0.03668154
227	0xbd6061af	-0.05478066
228	0x3de7da5c	0.113209456
229	0xbd9ce448	-0.07660729
230	0x3dd03237	0.10165828
231	0xbcebb637	-0.02877341
232	0xbd933809	-0.07188422
233	0x3dc0595a	0.093920425
234	0xbc4a2b60	-0.012339443
235	0xbd08b61a	-0.03337679
236	0x3da6bdea	0.08141692
237	0x3dcef8b7	0.10106032
238	0x3e210f3b	0.15728466
239	0x3e3a4705	0.18191154
240	0x3d339053	0.04383881
241	0xbd15a7ea	-0.03653709
242	0xbcde254a	-0.02711739
243	0x3dc848a1	0.09779478
244	0xbdcbc3b9	-0.099494405
245	0x3dc0a264	0.094059736
246	0x3d54681b	0.051857095
247	0x3d5ec74e	0.05438929
248	0x3d1a812c	0.037720844
249	0xbdc78e29	-0.09743912
250	0x3d78fb07	0.060786273
251	0xbc878d06	-0.016546737
252	0xbb055685	-0.002034576
253	0xbd50742b	-0.050892036
254	0x3dbddd18	0.09270686
255	0xbcb6ae92	-0.022300038

main.4.bias f4 [60]
0	0xbd29b435	-0.041431624
1	0xbdcc96d8	-0.09989709
2	0xbddb1bd8	-0.1069867
3	0x3e10a3c6	0.14124975
4	0xbdf971a0	-0.121798754
5	0x3dd8e7bb	0.10591074
6	0x3da4d854	0.08049074
7	0xbc8c6f78	-0.017142996
8	0x3cbee020	0.02330023
9	0x3e07ccff	0.13261794
10	0xbd5da275	-0.05411001
11	0x3e0e4c7a	0.13896361
12	0x3e253e7b	0.16137116
13	0x3e2ad296	0.16681895
14	0xba533599	-0.0008056998
15	0x3def4c80	0.11684513
16	0x3b7a985f	0.0038237793
17	0x3d95ccb1	0.073144324
18	0x3de63e36	0.112423345
19	0x3d952d52	0.07284035
20	0x3dda3b58	0.1065585
21	0xba03e2a5	-0.0005031026
22	0xbcc7c2fd	-0.02438497
23	0x3e16d5e5	0.14730032
24	0xbd8fe3e5	-0.07025889
25	0x3da3b8fc	0.07994267
26	0x3d31e33b	0.043429594
27	0x3c0c8376	0.008576265
28	0xbe04fc8e	-0.12986967
29	0xbd00b6b5	-0.031424243
30	0xbbb31888	-0.005465571
31	0x3d80b02e	0.062836036
32	0x3df04672	0.117321864
33	0xbda54e6a	-0.08071597
34	0xbd6f7104	-0.05845739
35	0xbd525f61	-0.05136049
36	0x3e0f34ef	0.13985036
37	0xbd56c692	-0.052435465
38	0xbc9504d5	-0.01819078
39	0x3c7f838e	0.01559533
40	0xbc09b57c	-0.008405086
41	0x3e0456d8	0.12923753
42	0x3db731dd	0.089450575
43	0x3ddccea1	0.10781599
44	0x3e08b86c	0.13351601
45	0xbd0b275b	-0.03397308
46	0x3dd7eb58	0.10542935
47	0x3e2e2691	0.170069
48	0x3c948420	0.018129408
49	0x3d4afc76	0.04955717
50	0x3d3efaf1	0.046626035
51	0xbdb4275f	-0.08796572
52	0xbcab25ed	-0.020892108
53	0x3cac6658	0.021044895
54	0xbcd97c58	-0.02654855
55	0x3df714ac	0.1206449
56	0xbd89b5e0	-0.06724143
57	0xbd36d765	-0.04463901
58	0x3dea29b2	0.11433734
59	0x3d8adfe5	0.06780986

main.6.weight f4 [625, 60]
0	0x3dce9899	0.100876994
1	0x3bd94ff6	0.0066318465
2	0xbdf62be9	-0.12020094
3	0xbd6150cc	-0.055008695
4	0x3b9a8b70	0.0047163293
5	0xbd53dbef	-0.051723417
6	0xbda37811	-0.07981885
7	0x3c35e584	0.011102084
8	0x3decfa8d	0.11571226
9	0x3e0a33d9	0.13496341
10	0x3d985c03	0.07439425
11	0xbd595086	-0.05305531
12	0xbd2eb14e	-0.04264956
13	0x3e264137	0.16235815
14	0x3d72185d	0.059105266
15	0x3d6cf10c	0.057847068
16	0xbcc773ec	-0.024347268
17	0xbceee6cb	-0.029162785
18	0x3d87a656	0.06623523
19	0x3ce59062	0.028022949
20	0x3cf1536d	0.029458726
21	0xbcc50cc3	-0.024053937
22	0xbd529a82	-0.05141688
23	0xbd483e38	-0.04888746
24	0xbda2f525	-0.07956914
25	0x3e26ef66	0.16302261
26	0x3d6c7de8	0.05773726
27	0x3d7ccd05	0.06171896
28	0x3dca5b9c	0.09880754
29	0x3ddbc32b	0.10730585
30	0x3cddfb7e	0.02709746
31	0x3deede50	0.116634965
32	0x3d28572f	0.04109877
33	0xbd92a38c	-0.071601
34	0x3de22a3c	0.11043212
35	0xbcd3d457	-0.025858087
36	0xbd78298b	-0.060586493
37	0x3c923c7f	0.017851112
38	0x3d8f9232	0.070103064
39	0x3e104d17	0.14091907
40	0xbdaa098c	-0.08302602
41	0xbdaf3bf2	-0.085563555
42	0xbd6255f9	-0.05525777
43	0xbd23ef12	-0.040022917
44	0x3e265250	0.16242337
45	0x3d25cbe9	0.040477667
46	0x3e0a01ff	0.13477324
47	0x3d959dfa	0.07305522
48	0x3defb74b	0.11704882
49	0xbccbd8e0	-0.024883687
50	0x3db8cf9d	0.09023974
51	0x3dcc22fa	0.09967609
52	0x3d375353	0.0447572
53	0xbd82f3eb	-0.0639418
54	0x3b4404f2	0.0029910174
55	0x3df931bf	0.121676914
56	0x3c813ad8	0.01577513
57	0xbd633e92	-0.055479594
58	0xbda3d772	-0.08000077
59	0x3c6e7dec	0.014556389
60	0x3dbd9e1c	0.092586726
61	0xbd11596a	-0.035485663
62	0x3dbc6b4c	0.09200153
63	0x3dca837e	0.098883614
64	0xbda04710	-0.07826054
65	0x3d825213	0.06363311
66	0x3df33bdc	0.11876652
67	0x3dd146fa	0.10218616
68	0xbd3b2d36	-0.045697413
69	0xbd5503a9	-0.052005444
70	0x3d9a91b2	0.075473204
71	0x3df8b9c1	0.12144805
72	0x3cfd9ab0	0.03095755
73	0xbd7e2cce	-0.062054448
74	0x3e27bca1	0.1638055
75	0x3dc9130f	0.09818088
76	0xbdbe68c0	-0.09297323
77	0x3d45fa31	0.048334304
78	0xbcd6876e	-0.026187625
79	0x3e278b37	0.163617
80	0x3dcd1a52	0.10014786
81	0x3d8fd39b	0.070227824
82	0xbb9c1538	-0.0047632717
83	0xbd53b5fd	-0.05168723
84	0x3d964ed2	0.073392525
85	0x3dbd42fa	0.092412904
86	0x3d2a785f	0.0416187
87	0x3e176349	0.14783968
88	0x3d9b3f9a	0.075804904
89	0xbd8b0ac8	-0.06789166
90	0x3ce5d274	0.028054453
91	0xbc6e65ba	-0.014550621
92	0x3d162467	0.03665581
93	0x3d27874b	0.04090051
94	0x3ae2916d	0.0017285772
95	0x3de1d0e3	0.1102617
96	0x3e0c06f9	0.13674535
97	0x3d22f1f1	0.039781515
98	0xbcaf62c1	-0.021409394
99	0xbcbe22f6	-0.02321003
100	0x3ddeb0d4	0.10873571
101	0x3db71efc	0.08941457
102	0x3e254905	0.16141136
103	0xbd788f91	-0.06068379
104	0xbd198144	-0.037476793
105	0xbd2a333f	-0.04155278
106	0x3ddee84c	0.10884151
107	0x3e1c75d9	0.1527933
108	0x3d0265da	0.031835414
109	0xbd93b94c	-0.07213077
110	0x3d9623ae	0.07331024
111	0xbd9e6be8	-0.07735425
112	0x3dab367c	0.083600014
113	0xbd3c0993	-0.04590757
114	0x3d4d477f	0.050117012
115	0x3c84540e	0.016153362
116	0x3de693a3	0.11258628
117	0xbdb2a103	-0.08722117
118	0x3de44b22	0.11147143
119	0x3d1c71ec	0.038194582
120	0x3c08d333	0.008351135
121	0xbdafcb90	-0.08583748
122	0x3df9716f	0.12179839
123	0xbceff182	-0.029289965
124	0xbdabb20a	-0.08383568
125	0xbcf02cbb	-0.029318204
126	0xbd1c171d	-0.03810798
127	0x3ddfc518	0.109262645
128	0x3dbc95ba	0.092082456
129	0xbb486259	-0.0030576198
130	0x3dfda059	0.123840995
131	0x3ab4c13b	0.0013790497
132	0x3c83bae6	0.016080331
133	0x3ca6f66a	0.020381171
134	0xbc447321	-0.0119903395
135	0xbde0ffa1	-0.10986257
136	0x3ce032e1	0.027368011
137	0xbc555542	-0.013020815
138	0x3d4992f3	0.049212407
139	0x3d8c4504	0.06849101
140	0x3da6d1e8	0.08145505
141	0x3cea6ff3	0.028617835
142	0x3a9f23a0	0.0012141354
143	0xbd76deb0	-0.060270965
144	0x3de64638	0.11243862
145	0xbdf542fe	-0.11975668
146	0xbd95026a	-0.07275851
147	0x3c36dd62	0.01116118
148	0x3d813157	0.06308239
149	0x3d94c9d6	0.0726506
150	0xbdf4cb29	-0.11952812
151	0x3d2c0218	0.041994184
152	0xbde8e813	-0.1137239
153	0x3daa2c34	0.08309212
154	0xbe0b9b38	-0.1363343
155	0x3c6c0450	0.014405325
156	0x3c9b643d	0.018968696
157	0xbd10728c	-0.03526549
158	0x3d55c43b	0.052189093
159	0x3daa8ddd	0.083278395
160	0x3d235043	0.039871465
161	0x3cbfbd04	0.02340556
162	0x3e06327d	0.13105197
163	0x3df83704	0.121198684
164	0xbdaf8c9d	-0.08571742
165	0x3ddb4e76	0.107083246
166	0x3deea002	0.11651613
167	0xba66beea	-0.0008802252
168	0x3d264c32	0.04060001
169	0xbd835d5d	-0.06414292
170	0xbd293e19	-0.041318987
171	0x3c84d6ff	0.0162158
172	0xbd6f77b9	-0.058463786
173	0x3d380afc	0.04493235
174	0x3d44186c	0.047874853
175	0x3d5f3591	0.054494444
176	0xbdb5ab57	-0.08870571
177	0xbde683fd	-0.112556435
178	0xbca134de	-0.01967853
179	0x3d489282	0.048967846
180	0xbd46e3fb	-0.048557263
181	0xbd7187bf	-0.05896735
182	0xbcfa5c22	-0.03056151
183	0x3d59fe92	0.053221293
184	0x3c47e3fd	0.012200353
185	0xbc87237f	-0.016496418
186	0x3d0caa77	0.034342255
187	0xbdcecf07	-0.10098081
188	0xbdffb276	-0.124852106
189	0x3dadb58b	0.08481892
190	0x3df4f52a	0.11960824
191	0x3c46f562	0.012143465
192	0x3da717b4	0.08158818
193	0x3dd4d96b	0.10393032
194	0x3decb7ea	0.11558516
195	0x3c4ea91d	0.012613562
196	0xbc5a7785	-0.01333416
197	0xbded82ca	-0.11597212
198	0xbc169655	-0.009191115
199	0xbcc4e735	-0.02403603
200	0xbb72a83c	-0.0037026545
201	0x3e06e5d8	0.13173616
202	0xbd1586bc	-0.036505446
203	0xbdbde03a	-0.092712834
204	0x3df4d5cf	0.11954843
205	0x3c3966e6	0.011316037
206	0xbd99fc66	-0.07518844
207	0x3bd2e180	0.006435573
208	0xba040075	-0.00050354685
209	0x3d498fec	0.04920952
210	0x3df69e0d	0.120418645
211	0xbd7092f4	-0.058733895
212	0xbd8c5c35	-0.068535246
213	0xbc401fc6	-0.011726325
214	0x3d377cf1	0.044796888
215	0x3e02b333	0.12763672
216	0xbd9c3e9d	-0.0762913
217	0xbd6ff31d	-0.05858146
218	0x3ab79723	0.0014006834
219	0xbdc5cd77	-0.0965833
220	0xbbde483e	-0.0067835143
221	0x3de11d80	0.10991955
222	0x3e0ab795	0.13546593
223	0x3ddb1d36	0.10698931
224	0xbb5b44c3	-0.0033457733
225	0xbd68d6be	-0.05684542
226	0x3deafaf2	0.11473645
227	0xbcef2ef5	-0.029197196
228	0x3c46243b	0.012093599
229	0x3dfba70d	0.12287722
230	0x3c09614f	0.008385017
231	0x3dcdf723	0.10056903
232	0xbd969919	-0.0735342
233	0x3cb25b62	0.02177209
234	0x3e0426a6	0.12905368
235	0xbc61b3cb	-0.013775776
236	0xbd9843d7	-0.074348144
237	0xbc911e91	-0.01771477
238	0xbd39b262	-0.045336135
239	0x3d9e2fdf	0.077239744
240	0x3dc8fbb6	0.09813635
241	0xbcb65f37	-0.022262199
242	0x3d9f2621	0.077709444
243	0x3db90508	0.09034163
244	0x3dc75f64	0.09734991
245	0x3d558e3a	0.05213759
246	0xbdf69f91	-0.120421536
247	0xbdc2aa11	-0.09505094
248	0x3dcff413	0.10153975
249	0x3d0eb79b	0.03484307
250	0xbdd23843	-0.10264637
251	0x3da6d452	0.08145966
252	0xbc6f2ba3	-0.014597806
253	0xbe0ba28d	-0.13636227
254	0xbd5affe4	-0.053466693
255	0xbdeb0a98	-0.1147663

main.6.bias f4 [625]
0	0xbd10a5b4	-0.035314277
1	0x3c1f2af6	0.0097148325
2	0x3e03afaf	0.12859987
3	0xbcd81182	-0.026375536
4	0xbcfea531	-0.031084629
5	0x3ddbf82f	0.10740697
6	0xbd9b62a9	-0.07587177
7	0x3e05b64d	0.13057823
8	0x3cb9bd61	0.02267331
9	0xbcb78489	-0.022402065
10	0x3daf2fd8	0.08554047
11	0xbbc2d920	-0.0059462935
12	0x3c5a83d9	0.013337099
13	0xbd59a926	-0.05313983
14	0xbbf09642	-0.007342131
15	0xbd316de7	-0.0433177
16	0xbd0e0f4f	-0.03468257
17	0xbd7b6190	-0.06137234
18	0xbd19bdf7	-0.03753468
19	0x3d5996c2	0.05312229
20	0x3c9ed166	0.019386958
21	0x3d422c41	0.047405485
22	0xbc737177	-0.014858595
23	0x3d5dde82	0.054167278
24	0xbd95b71b	-0.07310315
25	0xbcc55708	-0.024089351
26	0x3d8a30f5	0.06747619
27	0x3d320496	0.043461405
28	0x3d53b65e	0.05168759
29	0x3d4daded	0.050214697
30	0x3d41cd92	0.047315188
31	0xbdbe594d	-0.092943765
32	0xbd54f2bf	-0.051989313
33	0x3d44dad0	0.04806024
34	0xbd8df23a	-0.06930967
35	0xbd1294e4	-0.035786524
36	0x3e01a22c	0.1265952
37	0xbc631e73	-0.01386224
38	0x3d6553eb	0.055988234
39	0x3d7eb303	0.062182438
40	0x3d8466fb	0.064649545
41	0xbd9a0cef	-0.07521998
42	0xbc8332f1	-0.016015502
43	0x3d22335f	0.039599773
44	0xbdcdae5d	-0.10043023
45	0x3dbd60ba	0.09246965
46	0xbdc05b93	-0.093924664
47	0xbdd01748	-0.101606905
48	0x3db8b530	0.09018934
49	0xbd9e09ad	-0.07716689
50	0x3e25d9a7	0.16196309
51	0x39309803	0.00016841297
52	0xbccbd26d	-0.024880612
53	0x3dd988d3	0.106218
54	0x3d3041ea	0.04303161
55	0xbd9dd306	-0.07706265
56	0xbd8560ea	-0.065126255
57	0x3bc71494	0.006075451
58	0x3ddbab9b	0.107260905
59	0xbd178b7e	-0.036998264
60	0x3d89fe87	0.06738
61	0x3dd2953f	0.10282373
62	0x3d4a31f7	0.049364056
63	0xbca4071b	-0.02002292
64	0xbd203111	-0.039109293
65	0x3d1f8c59	0.038952205
66	0xbd8fbf4e	-0.0701891
67	0xbd066aaa	-0.032816567
68	0xbd822278	-0.06354231
69	0x3c97880d	0.018497491
70	0x3e0dc0d7	0.13843094
71	0x3a5c5280	0.00084046274
72	0xbdb4d8eb	-0.08830436
73	0xbe128cca	-0.1431152
74	0xbd0907ef	-0.03345483
75	0xbc3f12bf	-0.011662184
76	0xbcad435a	-0.02115028
77	0x3e420cb9	0.18950166
78	0x3d30c33d	0.043154944
79	0xbd374db9	-0.044751856
80	0x3ccedcdd	0.0252518
81	0x3ddb9efd	0.10723684
82	0xbb24a73b	-0.0025124091
83	0x3e1bf88c	0.15231532
84	0x3d2c253c	0.042027697
85	0x3dbeb36f	0.09311568
86	0xbd9e38bd	-0.07725666
87	0x3d311400	0.043231964
88	0xbbb4e27c	-0.005520163
89	0xbcc59680	-0.024119616
90	0x3da8cda6	0.08242349
91	0x3ce77cef	0.028257815
92	0x3db66e62	0.089077726
93	0x3c06be80	0.00822413
94	0xbdd95978	-0.10612768
95	0xbc7dd757	-0.015493236
96	0xbddb7e5b	-0.1071746
97	0xbd2bc7ea	-0.0419387
98	0x3d94b535	0.07261125
99	0x3d9250ad	0.07144294
100	0xbd9fecc3	-0.078088306
101	0xbd5d390c	-0.054009482
102	0xbd892ba2	-0.066977754
103	0xbcecbe44	-0.02889932
104	0x3d966fa4	0.073455125
105	0x3dedc764	0.11610296
106	0xbdb18baf	-0.08669221
107	0x3caf145d	0.021372015
108	0xbd6c57bd	-0.05770086
109	0x3d2b4f8b	0.041823905
110	0xbce26fb0	-0.027641147
111	0x3d02272d	0.031775642
112	0x3d7ac59d	0.061223615
113	0x3de39f4b	0.11114367
114	0xbc4b2718	-0.012399457
115	0x3c2ad0e7	0.010425783
116	0x3c15b700	0.009137869
117	0xbc704e75	-0.014667143
118	0xbc00448e	-0.007828845
119	0xbdb149fc	-0.086566895
120	0x3db90181	0.0903349
121	0x3c9d8471	0.019228192
122	0xbd86e5b6	-0.06586783
123	0xbda45073	-0.08023157
124	0xbd502642	-0.050817735
125	0x3c49c094	0.012313981
126	0xbc92361b	-0.017848065
127	0xbd5e2a9c	-0.054239854
128	0x3e05e2f2	0.13074854
129	0x3d1b19f5	0.03786655
130	0x3d8fb873	0.07017603
131	0xbdbd5caa	-0.0924619
132	0x3b9ec492	0.0048452104
133	0x3ddf27c3	0.10896256
134	0xbc36f87b	-0.011167641
135	0x3d809173	0.06277742
136	0xbcf8d387	-0.030374302
137	0x3d1bc626	0.038030766
138	0x3d1d9414	0.038471296
139	0xbcf3dfc9	-0.029769795
140	0xbc2661f7	-0.010155193
141	0x3d8f18f7	0.069871835
142	0x3d113396	0.035449587
143	0x3cc1e3d7	0.023668213
144	0xbd66fa93	-0.05639131
145	0xbdc3c459	-0.09558935
146	0xbd6e56c0	-0.0581882
147	0x3d90a9a3	0.07063606
148	0xbd8d282d	-0.068924285
149	0xbbffb468	-0.0078034885
150	0x3c637b12	0.013884323
151	0xbd91c541	-0.07117701
152	0xbd9a672a	-0.07539208
153	0xbc1848d1	-0.0092947045
154	0x3e0d2a74	0.13785726
155	0x3de702bd	0.11279819
156	0xbc91f456	-0.017816704
157	0xbd8079d1	-0.06273235
158	0xbc1f0599	-0.009705924
159	0xbceb0e6b	-0.028693398
160	0x3c1fc235	0.009750892
161	0xbd7aa60b	-0.061193507
162	0xbd79f355	-0.061023075
163	0x3dcea35e	0.100897536
164	0xbd5c0561	-0.053716067
165	0x3e04a2a4	0.12952667
166	0x3d73528e	0.059404902
167	0xbd4bbac6	-0.049738668
168	0x3d4049c7	0.04694536
169	0xbdd5f67b	-0.10447403
170	0xbc6a1bc6	-0.014288848
171	0xbd25d082	-0.04048205
172	0xbde1bc2b	-0.11022218
173	0x3d73fa6a	0.059564985
174	0xbd4ca216	-0.049959265
175	0x3e18010a	0.14844146
176	0xbd9cbb3a	-0.07652898
177	0xbd6fef7b	-0.058577996
178	0x3dba3cbf	0.09093618
179	0xbc60ae93	-0.013713497
180	0xbcfafc1c	-0.030637793
181	0xbd9e73ef	-0.07736956
182	0xbcc66bbc	-0.024221294
183	0x3c03002e	0.007995648
184	0x3db2a89f	0.08723568
185	0x3e02c521	0.12770511
186	0x3c131687	0.008977539
187	0x3d7266b3	0.059179973
188	0xbd22e364	-0.039767638
189	0x3c55d13e	0.0130503755
190	0xbd8cab8e	-0.06868659
191	0xbc5cd5aa	-0.013478676
192	0x3935e179	0.000173455
193	0x3e191db9	0.14952745
194	0xbe056018	-0.13024938
195	0xbd659a75	-0.056055505
196	0x3ddaecaf	0.10689675
197	0xbcd76295	-0.026292125
198	0xbda3dd05	-0.080011405
199	0xbe0fad16	-0.14030871
200	0x3d8c5776	0.06852619
201	0x3de0ea3d	0.109821774
202	0xbcff37cb	-0.031154534
203	0x3c2665f8	0.010156147
204	0x3dcdb7eb	0.10044845
205	0x3c19495f	0.009355872
206	0x3d504ca3	0.050854336
207	0x3ddf0f9b	0.108916484
208	0xbd96a517	-0.07355707
209	0x3db3f565	0.0878704
210	0xbd98fbd9	-0.07469911
211	0x3d9ed776	0.0775594
212	0x3da8c703	0.082410835
213	0x3d9b9aba	0.07597871
214	0x3d7770df	0.060410377
215	0x3d13b02b	0.03605668
216	0xbd750dac	-0.05982749
217	0xbda50b9a	-0.080588534
218	0x3dd72823	0.10505702
219	0x3b2d475b	0.0026440236
220	0x3c08e5c9	0.008355566
221	0x3d802752	0.062575
222	0xbb43cfb0	-0.002987843
223	0x3c98ee6c	0.018668376
224	0x3daf35db	0.08555194
225	0xbd38f44f	-0.045154866
226	0x3d6f9fc9	0.058501992
227	0xbb21b720	-0.0024675801
228	0xbd1d34a7	-0.03838029
229	0x3de246ea	0.11048682
230	0xbd528dfb	-0.051404934
231	0xbd0ddbb8	-0.03463337
232	0xbdb6e898	-0.089310825
233	0x3d764771	0.060126726
234	0x3dab6b0b	0.08370026
235	0xbc0fdc0f	-0.008780493
236	0x3b004889	0.0019574484
237	0xbde7a55a	-0.11310835
238	0xbd7784eb	-0.060429495
239	0xbcd1d4b8	-0.025614128
240	0x3da5fd99	0.081050105
241	0xbd51f387	-0.051257636
242	0x3c9efea5	0.019408533
243	0xbd3124ed	-0.043248106
244	0xbcc49fe0	-0.024002016
245	0xbdc29749	-0.095015116
246	0x3bff7873	0.007796341
247	0x3e15f1a7	0.14642964
248	0x3de1ad39	0.11019368
249	0x3d82fffc	0.063964814
250	0xbdc1777c	-0.09446618
251	0xbbcbdf4e	-0.0062216884
252	0x3d93d47a	0.07218261
253	0x3ddb9386	0.10721497
254	0x3dd80463	0.10547712
255	0x3db755da	0.08951922
