loss_curves/netG_50k_mlp_80df.pth (torch_old, 288127 bytes, 8 tensors)

main.0.weight f4 [80, 100]
00000000: 8731 1f3a 8963 8d3d ef7a c5bd e2bf bcbd
00000010: 5b3b 3dbd 51d1 0b3d ab31 283b dfb4 c53d
00000020: eced 7abc 30df fb3c 8dd5 29bd c26e dabc
00000030: 1dda f7bd 1793 9abd de0c 4abd 5217 51bb
00000040: 2dfe 433d d469 9d3d 1ee8 aebd 56b8 65bd
00000050: db9b 273d 965c cd3d 1af1 c9bc ecfb c63d
00000060: 242a b6bc df8a 403c 6d8b ec3d c89d edbd
00000070: a467 91bd 25fc f3bc 2320 3dbd cfdc dd3d
00000080: 725b b1bd 8be8 6abd 9930 b7bd fc81 ecbd
00000090: c71d 96bd 12ae df3d 9e20 6b3d c638 803d
000000a0: de7f 993b b5fd 8abd 581a 833c 4c8f ebbd
000000b0: 3ef8 b8bd 6ac3 82bd e61b 9f3d fef1 923d
000000c0: 32fe 7abd db2f fdbb 2fe8 9e3d 73ab ff3d
000000d0: bf8f 513d da46 293c 5152 ad3d b6f0 91bd
000000e0: ff05 843c d954 c4bd e74e b2bd 78fb 70bd
000000f0: fd7a 6e3d 1037 433d 9d51 8ebd 2faa 023d
00000100: 231c 993d 186f b2bc 85ad f23b fb40 f73c
00000110: 48c7 983d 7547 f13d e322 c0bd 0aed 47bd
00000120: c1ba 2f3d ec74 d33d f3f7 d43d 9fa4 d53d
00000130: c98f af3c 484a dbbd 6785 813c 61cc 9cbd
00000140: 815b dfbd 3562 de3d f388 bc3d 3031 f6bd
00000150: 99ba 4a3c ad99 a1bc 946e dcbc 43b3 64bd
00000160: 93e7 433d d3c6 99bd 5628 4a3d 60ef 8d3d
00000170: a245 b43d 57f9 533d b0ef f6bd 0de1 a9bd
00000180: 1a9c 7a3d 203c b03c 3773 c2bd 6f00 9ebd
00000190: 4143 f03d 4600 ac3d a7e5 42bd 0423 11bd
000001a0: 7c76 e9bd bf51 87bb 8d24 b9bd 697d c8bd
000001b0: f9b0 21bc 23f5 8f3c a2d6 5bbd 7139 993d
000001c0: 8a59 98bd da46 e43d 6d10 bd3d 4d75 d3bd
000001d0: 9ea3 07bd 32be 8b3b 419b ec3c ea78 e53c
000001e0: d517 3f3d ef76 5c3c a542 84bd 35a7 853d
000001f0: a8df 00be efb9 98bd a36d e1bc 377d 78bd
00000200: 886e 2fbd c068 d1bd 12a1 edbc 4635 ba3c
00000210: 9e7f adbd ddc5 2ebc 379f aa3d f71c 5abc
00000220: 008a c73b 2308 2ebc 0f6b b03c 24ca b03d
00000230: 91aa e63d 9748 9e3d 9c07 e83d 833b b5bb
00000240: 0c90 debd 2bb0 7cbd f468 af3d 40de 62bb
00000250: ecbf 85bd 3e26 c4bd 338f f4bd 1615 c5bd
00000260: 565a b3bc 1743 8c3d 2ae0 783d 6921 ecbd
00000270: e571 943d 0b85 c7bd e873 e1bc 8475 43bd
00000280: 6775 9cbc 68a3 85bc c552 debd 611a ddbd
00000290: 27ec 8ebc a6e7 e2bb e2d5 77bd 2818 4e3d
000002a0: bcff dcbd 7fb6 08bc 443d e03d 32e6 53bd
000002b0: a812 dd3d 64d4 413d 10e1 d8bd e45f a73d
000002c0: 14e1 73bc e009 64bd 0704 c93d 8645 d6bd
000002d0: d984 793c c009 fcbc 3ace b43d 1e0b 003d
000002e0: a257 663d b5d2 603d ac9f f7bc ccbf e7bc
000002f0: 5588 cebd 4f49 923d 2751 b93d 931f a83d
00000300: 92b4 b2bd 807e e03b 97df b8bd 4d9d 9abd
00000310: 77d8 99bd d4b2 093d 0fad 99bd 1f31 08bc
00000320: 22e8 023c 00d0 aa3d 8acc babd 7230 b5bd
00000330: e884 9abd 25a7 b63d bcc1 3cbd 5353 d53d
00000340: ad7c 2d3d 2a9c 7b3c 5d0a 90bb be13 dabc
00000350: 4192 783c 700a 22bd d7bc 283b f4db 2e3c
00000360: 332a d6bd 6041 81bd 6d8a d23d 1309 cebd
00000370: 3725 35bc 8578 f63d 1c53 303d fc91 163c
00000380: 5ecb e1bd 1acb 7a3d 6104 a4bd 6e0d 06bd
00000390: c48f 16bd c066 8ebc bd2f 04b9 2959 d53d
000003a0: 3e1a 2d3c 92fd ed3d dbe3 a43d 3fdc aebd
000003b0: b14e 593d 4aa2 b4bd 931b 64bd b70d 343d
000003c0: 96b7 273d 0def cd3d c13b 40bd 7e47 853b
000003d0: 0cbb 7e3d 0c0b f9bd 3737 c63d bb38 d2bd
000003e0: e72c e53b 05c5 b2bc f812 91bd 5222 363c
000003f0: 7045 df3d c5c0 24bd bf5f a4bd 1129 56bd
0.0006072749 0.069037504 -0.09642588 -0.09216286 -0.046199184 0.034135167 0.002566437 0.09653639
-0.015315514 0.030746073 -0.041463424 -0.026664142 -0.12102149 -0.075475864 -0.049328677 -0.003190477
0.047849823 0.07686201 -0.085403666 -0.056084 0.04092012 0.10027425 -0.024651099 0.09716019
-0.022236891 0.011751859 0.11550031 -0.1160236 -0.07099846 -0.029783318 -0.046173226 0.108331315
-0.0866002 -0.057350677 -0.08944816 -0.1154823 -0.07329898 0.10921873 0.057404153 0.06260829
0.0046844324 -0.06786672 0.016003773 -0.11501941 -0.090317234 -0.063849285 0.07768993 0.071750626
-0.061277576 -0.007726652 0.07759129 0.12483873 0.051162478 0.010331834 0.08462966 -0.0712599
0.01611614 -0.09586496 -0.08706456 -0.05883357 0.05822276 0.047659934 -0.0694916 0.03190058
0.0747607 -0.02178149 0.007405939 0.030182352 0.07459885 0.117812075 -0.09381654 -0.048810042
0.04290271 0.103250355 0.10398855 0.104317896 0.021430867 -0.107075274 0.015810682 -0.0765617
-0.10906125 0.10858575 0.092058085 -0.120211005 0.01237359 -0.019726599 -0.026908197 -0.05583502
0.04782827 -0.07508626 0.049354874 0.06930423 0.08802344 0.05175146 -0.120574355 -0.08294878
0.061184026 0.021513045 -0.09494632 -0.077149265 0.11731578 0.0839849 -0.047582295 -0.035433784
-0.11399552 -0.004129618 -0.09040175 -0.09789545 -0.009868854 0.017572945 -0.053671487 0.07481659
-0.07438953 0.11146326 0.092316486 -0.10325108 -0.033115022 0.0042646164 0.028882625 0.028011758
0.046653587 0.01345609 -0.06458024 0.06526033 -0.12585318 -0.07457339 -0.0275181 -0.06066629
-0.04283002 -0.102250576 -0.029007468 0.02273048 -0.08471607 -0.0106672915 0.08331149 -0.01331257
0.006089449 -0.010622057 0.021535425 0.08632305 0.11263002 0.07728689 0.113295764 -0.005530776
-0.108673185 -0.061691444 0.0856494 -0.0034617335 -0.06530747 -0.095776066 -0.119413756 -0.096231624
-0.021893661 0.06848734 0.060760655 -0.1152981 0.07248286 -0.09742173 -0.027521089 -0.047719494
-0.01909895 -0.01631327 -0.10855631 -0.10796047 -0.01744659 -0.0069245873 -0.06050671 0.050316006
-0.10790965 -0.008344292 0.109491855 -0.051733203 0.10794574 0.047321692 -0.10589802 0.081725866
-0.014885206 -0.05567348 0.09815221 -0.10462479 0.015229427 -0.030766368 0.08828397 0.031260602
0.056235917 0.054888446 -0.030227505 -0.028289698 -0.10084597 0.07142889 0.09048682 0.08209147
-0.08725847 0.0068510175 -0.090270214 -0.07549534 -0.075119905 0.03361781 -0.075037114 -0.008312493
0.007989915 0.08340454 -0.09121044 -0.08847131 -0.07544881 0.08918599 -0.046083197 0.104162835
0.04235523 0.015357057 -0.0043957666 -0.026620742 0.015171588 -0.039560735 0.0025747323 0.010672558
-0.104572676 -0.063112974 0.10280309 -0.100603245 -0.011056236 0.12034706 0.04304801 0.009190079
-0.11025117 0.06122885 -0.08008648 -0.03272765 -0.0367582 -0.01738298 -0.00012606285 0.104173966
0.010565339 0.1162063 0.080512725 -0.08538102 0.05305356 -0.08820017 -0.05569036 0.043958392
0.040946566 0.10055361 -0.046931986 0.0040673604 0.0621901 -0.1216031 0.096785 -0.10264727
0.006993878 -0.021822462 -0.07083696 0.011116581 0.10901916 -0.0402229 -0.080260746 -0.052285258

main.0.bias f4 [80]
00000000: 7947 153e ca7a 903d 2684 0fbd e2e9 a33d
00000010: 5821 e3bb c25a 84bc 9654 813d df1b d13c
00000020: 4ecf aa3d 5bd0 0f3e 6afc fdbc ff40 243e
00000030: f68a 1c3c 0b5e 343d 6416 023e c166 763c
00000040: 89b8 ce3b 0832 283d ab54 d23d ebbd 523d
00000050: 49aa 183e e634 d23d f30f febc 547f 5fbc
00000060: deee 853d 431f 653d 0ae9 e53c e41f c73d
00000070: a379 d93d ad50 b13b 2515 3b3d 32f1 a93d
00000080: 2aa4 c13d 9c5d 563d dd28 d83d 8bad c23d
00000090: b6be 18bd 5cc2 36bd 88dc 803d a0b7 a43d
000000a0: 3cbb 37bc 45fd 7a3c 0cd6 0dbd 59a0 a13d
000000b0: 74e1 fb3d 88c2 193e e426 1cbd e3a9 0f3e
000000c0: 90e7 af3c 15fa e3bc 6705 033e 68b0 0d3e
000000d0: c729 693d 1888 e43c e11c 8d3d 4ed5 db3d
000000e0: 8ad4 cb3d 9302 5d3c ade9 793d 970d af3d
000000f0: f1a5 953d fc64 ab3d 0f2d ad3d eb18 a53d
00000100: f8c9 dd3d fb93 2c3c d0fb 0d3e 8e24 cf3c
00000110: 286d 9bbc ef0b b03d be77 553a d08e 06bd
00000120: 74c5 623d 8646 243e b92b 5fbc 4e3c 8e3d
00000130: 67db 99bc 169a 853d 259b f33d 5fe4 333d
0.14578046 0.0705467 -0.035038136 0.08003594 -0.006931465 -0.016156558 0.063149616 0.025525985
0.083403215 0.14044325 -0.03100415 0.16040419 0.009554615 0.044035 0.12703854 0.015039147
0.0063086194 0.04106334 0.102700554 0.05145065 0.14908709 0.10263996 -0.031013465 -0.013641197
0.06539701 0.055938017 0.028065223 0.097228795 0.106189035 0.0054112286 0.045674462 0.082979575
0.0945514 0.052335367 0.10554669 0.09505757 -0.03729125 -0.04461895 0.06292063 0.08042836
-0.011214074 0.015319173 -0.03462796 0.07891912 0.12298861 0.15015614 -0.038123026 0.1402965
0.021472722 -0.02782921 0.1279503 0.13836825 0.056924608 0.027896926 0.06890274 0.10734044
0.09952648 0.013489383 0.061013866 0.08547514 0.073070414 0.083688706 0.0845586 0.08061393
0.10829538 0.010533328 0.1386559 0.025285985 -0.018972948 0.08596026 0.0008143148 -0.03285104
0.055364087 0.16042528 -0.013621264 0.06945096 -0.018781377 0.0652353 0.11894826 0.043918964

main.2.weight f4 [80, 80]
00000000: a8f9 45bd 7b94 05bd 44cc 8fbc 05b4 173c
00000010: ddfa 7cbb 6737 cd3d 6e3f 9b3d ec06 1ebd
00000020: cd92 843d ac51 53bd 2c7c 053e 840d 363d
00000030: 8a95 1e3e b0d2 0d3e 407b 51bc 4d94 0c3e
00000040: e3b2 33bd 4636 57bd 7686 003e 7d7d d2bb
00000050: a035 fdbc 4a72 a5bc 737d 66bc ac3b 44bd
00000060: c705 853d ae2b 37bd 6f4b 9b3c b4cf f93d
00000070: bfa4 0fbd 19b7 013e 96a8 253e 7f36 083d
00000080: 093f 1d3d 85ef 5ebd d1a6 1f3e a5b3 0f3e
00000090: 43a1 223d 4518 ef3d 7f2e 40bd ad2d bdbc
000000a0: 600a 1f3e ee1d 7cbd fb20 203d d297 02bc
000000b0: 1949 5ebd 28de 8f3d 9d53 e03a 584b 963d
000000c0: 9d0c 1b3c aefa b33d da7a 883d e9cb 71bd
000000d0: 99b0 fb3d 3ba3 f73d 0e40 10bd 216b ab3d
000000e0: 850e 1fbb 4a82 013e 21e1 7abb 280d f73d
000000f0: 5465 a7bc 41c3 0cbc 7647 c43d 14a1 a63d
00000100: 1a8b d13a 7240 083e a125 933d fb37 d43d
00000110: 0bea 85bc 5c2b a13d 4b23 9d3d 3609 ed3d
00000120: d156 1e3e c7b0 fb3d d37c 233e 34fd d23a
00000130: b06a 28bd 8a5f 8e3d 717c 493d ddac 083d
00000140: 9590 3cbd 23c9 1f3d e9d0 343d 9273 e43d
00000150: c3a3 c83d b9d5 813d 43ac fb3d aa0d 033d
00000160: cdf0 083e 69b5 63bd dafb 1f3d ec2b 7cbb
00000170: 5571 ec3d 9ea7 483c cad0 ecbc e565 c83c
00000180: 74a8 393d ca05 f43d 3410 da3d 094e 6bbd
00000190: 3b68 96bb f08f 46bc d98f 223d 0303 be3d
000001a0: 3a1d 013d f239 143e 1817 633d 99f3 d63d
000001b0: 1079 803c 6566 dd3d 624b af3d bb64 3f3d
000001c0: 4459 233d bbf3 c03d c4ae 703d ba6a d6bc
000001d0: b24d dc3b 93c2 e9bc b67d 923d a43a 023e
000001e0: b60d c1bc a663 a73d e9af 39bd bd3d b73d
000001f0: 6b4a 6dbd 540c 693a 7f69 2f3d 464c d63c
00000200: e988 dc3d 0ef9 b23a ab0a a73d a514 bf3d
00000210: 5e22 953d cbd7 88bd 459a 8cbc e7a6 873c
00000220: f1e2 2d3d 659b b53d 211c f93d e7a9 883d
00000230: ddad 04bd 5575 85bd 2030 143e 950c 323d
00000240: cba8 62bd de69 443c d85a b13d 170b 263d
00000250: d19a ed3d 45f7 cf3c 8cb8 693d ab13 183e
00000260: b07d 61bd dd76 633d 3c0c 43bd bf03 f7bc
00000270: 4ed1 77bd 84fc c63d 9a82 ad3c 5d71 a63d
00000280: 8a18 6a3d 4c29 a33d 0889 4fbd 8b5a 7d3b
00000290: 2966 3e3c a023 19bd d08e b83d 45a4 db3d
000002a0: 2259 413b 7ac4 04bd 907a 65bc e32e 74bd
000002b0: 9137 f3bc c94a 733c 69e2 7f3d c723 2abc
000002c0: b9a6 40bd 5ef2 cd3d 2b86 083e d763 473d
000002d0: 6fb2 e23c 9057 92bb 47c8 a43d a6d5 503d
000002e0: d01a e1bb 3c41 f43d 1b7e de3d 6730 013e
000002f0: 46bc f63d b803 b9bc 6805 153e 7fc4 2b3d
00000300: d6ce 75bd 55fa e93d 667f e3bc 7fec efbb
00000310: 3d88 863d ee66 fb3d 8884 803d 668e 55bd
00000320: f0e2 09bd 9e57 ae3d 1724 6c3c 441d 973d
00000330: d98d 0f3e ff65 e4bc 1b29 57bd b72f c33b
00000340: a91c 0f3d db66 d73b cdb0 1c3e 7eb0 b7bc
00000350: 8056 de3d e211 b13d 7f55 153e d6d3 80bd
00000360: 2daa fe3d 62dd 043c fb4c 803b 7213 423d
00000370: de57 f23d 5709 cd3d 43bf a9bc b4f9 903d
00000380: d85f 213d 9383 a23d 9b46 353d c532 883c
00000390: d0d4 c23d 60d3 0c3e 5701 d53d 77bd d53b
000003a0: 6441 373d f68e 853d 57ac a8bc bf77 0d3e
000003b0: abc5 d33d 50be b93d 5ef2 153e 078b e13c
000003c0: c959 0e3e 0eb2 2c3d 69e1 123e 9b25 4abc
000003d0: 5e20 65bd a7c7 e53d 8e86 be3d 489f 50bd
000003e0: e097 d03d b8b0 f73c c8a2 ca3d a54b 1f3e
000003f0: ac0a 113e c3f5 6b3d ee5c e23d 6e73 4bbd
-0.048333794 -0.032612305 -0.017553456 0.009259229 -0.0038601675 0.10020333 0.07580458 -0.03858082
0.064733125 -0.05159156 0.13035649 0.044446483 0.15486732 0.13849902 -0.012785733 0.13728447
-0.04387177 -0.052541994 0.12551293 -0.006423651 -0.03090936 -0.020196099 -0.014067995 -0.04790847
0.064952426 -0.04471939 0.018956868 0.12197819 -0.035069223 0.12667502 0.16177592 0.033255097
0.038390193 -0.054427642 0.15590979 0.14033373 0.039704572 0.11674551 -0.046919342 -0.023093069
0.15531301 -0.06155198 0.039093953 -0.007970767 -0.05426893 0.07024795 0.0017114762 0.073385894
0.009463456 0.08788048 0.06664057 -0.059032355 0.12289543 0.120916806 -0.035217337 0.083700426
-0.002427013 0.12647358 -0.003828116 0.12063056 -0.02043406 -0.008591474 0.095839426 0.08136192
0.001598689 0.13305834 0.071849115 0.1036224 -0.016346952 0.07869598 0.07672747 0.115740225
0.15462805 0.12289577 0.15965585 0.0016097189 -0.04111737 0.069518164 0.049190942 0.03336798
-0.04603632 0.03901018 0.044144545 0.11154856 0.0979686 0.063395925 0.12288716 0.031995453
0.13373108 -0.055592928 0.039058544 -0.0038478328 0.11545054 0.012246994 -0.028908152 0.02446265
0.045326665 0.11915167 0.10647622 -0.057447467 -0.004590062 -0.012119278 0.039687965 0.09277918
0.031522013 0.1447523 0.055441946 0.10495681 0.015682727 0.10810546 0.085593 0.046726923
0.039880052 0.09421488 0.05876042 -0.026173938 0.006723129 -0.028535163 0.07152884 0.12717682
-0.023566108 0.08173303 -0.045333777 0.089473225 -0.0579323 0.00088900817 0.04282522 0.026159417
0.10768301 0.0013654546 0.08156332 0.093301095 0.07281946 -0.06681784 -0.017163405 0.016559077
0.042452756 0.0886753 0.12163568 0.06673031 -0.03239237 -0.0651652 0.14471483 0.04346903
-0.055336755 0.011988131 0.08659905 0.04053792 0.116017945 0.025386462 0.057060763 0.14851253
-0.055051506 0.05553328 -0.04761909 -0.030153153 -0.060502343 0.09716132 0.02118044 0.08127091
0.05715231 0.07966861 -0.050667793 0.0038658704 0.011621037 -0.03738749 0.09011614 0.10724691
0.002950259 -0.032413937 -0.014006272 -0.059615027 -0.029689582 0.014849373 0.06247178 -0.010384507
-0.047034 0.100559935 0.13332431 0.0486792 0.027672974 -0.0044660047 0.08046012 0.050985
-0.0068696514 0.11926505 0.108638965 0.1261612 0.12047629 -0.022584781 0.14552844 0.04193544
-0.060011707 0.114247 -0.02777071 -0.0073218937 0.06568954 0.12275492 0.06275278 -0.052137755
-0.03366369 0.085128054 0.014412901 0.07378629 0.14018954 -0.027880667 -0.052529436 0.005956616
0.03493944 0.0065735406 0.15301819 -0.022423025 0.10856342 0.08645989 0.14583395 -0.062904045
0.12434802 0.008109422 0.003915427 0.047381826 0.118331656 0.10011547 -0.020721084 0.07078877
0.039398044 0.07935252 0.044256788 0.016625771 0.09513247 0.13752508 0.10400646 0.00652283
0.044740096 0.06521408 -0.02058999 0.13815211 0.103404365 0.09069502 0.14643237 0.027532114
0.13901438 0.042161994 0.143438 -0.012338067 -0.05593907 0.11219721 0.09303008 -0.050933152
0.10185218 0.030235633 0.09894329 0.155562 0.14164227 0.057607424 0.11052881 -0.04967063

main.2.bias f4 [80]
00000000: 439b 553d 348f 28bd 4c9c e13d b1e5 b73c
00000010: 2a83 233e 20d2 023e 9b48 0c3e f67e 68bd
00000020: 5d18 ef3d ceaa 4abc c97f 25bd b942 fb3d
00000030: ae30 14bd 5d91 b23c c90d e53d 280c cbb9
00000040: b724 1b3e f799 e33d 0d9b 52bd 6ef7 993d
00000050: 3539 59bd 31a8 d53d b7ed 033d bf8d ab3d
00000060: c2e6 a13c 6b89 123e 74cf 803c 7324 ebbc
00000070: 850e 66bd 9233 153b 08a4 333d fd0b e93c
00000080: dd09 1dbd 8fc6 9f3a f60d 693d 5a60 e43d
00000090: a232 8c3b 4d2d f33c 681f 413d 73a5 083e
000000a0: 2616 113d ee2c ba3c c6ea ed3d bac8 793d
000000b0: 19c7 c13d e11b d33a c36b 703c 5cd6 db3d
000000c0: b066 ce3d 88b1 bd3d bc13 a63d f0b1 113d
000000d0: a404 f6bc c488 933d 31ca a33d bcc2 fd3d
000000e0: 2ef5 8f3d 9955 1e3e 3ddf 233d 9d7c 043e
000000f0: 236f 37bd 73f4 0e3d 6405 6abc 062a 2a3d
00000100: e798 29bd 0235 2335 fc49 0d3e f53e b33d
00000110: b21b 053e e7aa d33d 0208 d53d 5afa d6bb
00000120: 0815 c53d a8da 96bd 31d4 01bd f619 3bbd
00000130: d11c f73d 2318 b43d ee6a d6bc c76e 853d
0.052150022 -0.041152194 0.110161394 0.022448393 0.15968004 0.12775469 0.13699572 -0.056761704
0.11674569 -0.012369825 -0.04040507 0.12268586 -0.036179237 0.02179783 0.1118427 -0.00038728234
0.15150724 0.11113351 -0.0514174 0.075178966 -0.053033073 0.104324706 0.032209124 0.08376645
0.019763354 0.14310233 0.015723921 -0.028703904 -0.05616619 0.0022766334 0.043857604 0.0284481
-0.038339484 0.0012189912 0.05689808 0.1115119 0.004278497 0.029684687 0.047149092 0.13344364
0.035421513 0.022726502 0.11617045 0.060982443 0.09461803 0.0016106331 0.01467413 0.10734245
0.1007818 0.09262377 0.08109233 0.035570085 -0.03003151 0.0720382 0.07997549 0.12390658
0.07029186 0.1546234 0.04000782 0.12938161 -0.044783723 0.034901094 -0.014283512 0.041543983
-0.041405585 6.079937e-07 0.13797754 0.087522425 0.12998846 0.103353314 0.10401918 -0.006560606
0.09623152 -0.07365924 -0.031696502 -0.045679055 0.12066043 0.08793666 -0.026174035 0.0651527

main.4.weight f4 [80, 80]
00000000: f1a7 c53d 0921 89bd 0859 a2bd e795 b5bd
00000010: 0417 80bc 27d2 c73d 9aaf a33c 0a38 4ebc
00000020: 7b68 a3bc 83ee 02bd bd58 4abd d617 d23d
00000030: fd6f 36bd 07a5 28bd ced8 25bd c973 c43d
00000040: 4cb3 8ebd 14d7 dc3d dcf9 9239 3cd6 46bd
00000050: fa92 8c3d bbaf ba3d 99c1 12bd 1c44 7b3d
00000060: b2e8 8abd cecc 44bd f971 963d 8e50 d23d
00000070: 9054 c6bd 355d 96bd dc16 acbd e3b9 3fbc
00000080: 090c 64bc b22d 8c3d 92ab d63c 4f6a b2bd
00000090: d476 24bc 7479 8cbd aabf 153c 6a51 073d
000000a0: d5fc d4bd fd83 de3d 5ec0 6c3d c055 e4bd
000000b0: 0e47 4dbd 193c c63d 06ab a23b a634 b6bd
000000c0: 6415 62bd e71c d3bd 7e49 043d 697d 6bbd
000000d0: baec d33d bb65 e73c e281 74bd 1edb 9f3d
000000e0: 7cc0 c2bc 3e48 9cbd 9e5d bdbd ae2c 57bd
000000f0: 5c92 373d ddbe bf3c 802d 12bd 5746 27bd
00000100: 2984 f8bc b355 9dbd 7216 d03d d40b d1bd
00000110: 0c3d 68bc 6822 503c 1948 52ba 76a9 bcbb
00000120: 4d3a b9bd 258a 45bd ac95 80bd 485b cc3d
00000130: 4608 16bd 5d5d a9bd 776c a1bd 3d7c a8bd
00000140: 7600 f23c ef6f ccba a074 0ebd e363 f83b
00000150: 4578 0f3e 309a 5abd cadd 193d b091 1b3e
00000160: e332 f23d 37b2 973d 3557 a13d 6fb7 f53b
00000170: 1ec1 14bd b88f 92bc ab1f 92bc c855 083e
00000180: 56c9 443d 3fda 62bd 1200 1cbd b2b1 1d3d
00000190: fcf5 eb3d c835 543d 3ada 8e3d 4f41 b23c
000001a0: b7e0 463d 3f65 eb3d 7224 913d d106 513c
000001b0: 207c 253e aba5 013e f0d1 b23d 7084 cf3d
000001c0: e788 c03d f2c0 0a3d 8c2f 923d f2de 3f3c
000001d0: bb85 3d3c 83e3 4d3d 6efc c2bc 4153 143e
000001e0: 2325 e2bc bfee b0bc 586e ff3c 812b f53d
000001f0: d918 0cbc 1258 2d3d d14d df3d aad2 46bd
00000200: 061d 1d3e 0c5d db3d 833d af3d dcf6 393d
00000210: 8735 ec3d 9c8f 5a3c a67d 6c3d 565d 063e
00000220: ae26 4cbc 7d09 5d3d 2259 033e 7da7 6b3d
00000230: 9876 95bc 7a3f 8a3d 9ee8 e53c 3b81 48bd
00000240: 51cb 4e3d ffc9 563d 4c32 f53d 6cb7 253d
00000250: dae2 0abd 62fc 133e 5674 953d 9b22 8d3c
00000260: 1d6c eb3d 4442 063e 0bda 043e 1c29 0c3e
00000270: bc19 543b 8af5 183e 9d7a f23d ccdd dbbc
00000280: 1d20 e13d 78fc 06bc bf6a d83d 85f6 febb
00000290: 3a61 e43d 8dc8 0f3c 2431 a53d ca17 043d
000002a0: 39d5 eb3d 1fec 5f3d bdfc c33d bab5 5d3c
000002b0: 6f46 e43d 75e9 f03d 12ca 853d ccfb c23c
000002c0: 0255 953d 0ba2 62bd a688 2d3d 17c5 173e
000002d0: 9e6c e63d fbda 393d eaba a3ba 5873 a23d
000002e0: 0846 203e f06d e23d 427e 313d 67e6 b83d
000002f0: 0f38 883d 5f48 e93c a6da d1bc c9dd 423b
00000300: bbe5 95bc 3ed4 d9bb 3271 283e 2ff7 20bd
00000310: e22e 7d3d adcb 7f3d 8b81 b43a f676 2c3d
00000320: f7f3 c33d 2feb aabc c7fb bd3d cdf7 463d
00000330: f14b 7a3a 6af6 f2bc ecc8 373d d58e 3c3b
00000340: 1c26 ce3d 4182 5bbd 4502 103e 84f9 273e
00000350: 3779 893d d008 99bc 4217 55bd 3f11 e33d
00000360: 4038 c23d c430 173e 0815 43bb c04a f53d
00000370: ba8d 3f3c f779 edbc 3981 893d 3f8c be3c
00000380: 2608 db3d a623 71bb 1f4c 023e e7f2 d0bc
00000390: 3911 ac3d 63ee 063e d9ac c83c 027b 46bd
000003a0: 88a2 c73d c1e1 2fbd 26a8 cebb 7404 ed3b
000003b0: 682a a8ba fa00 223e 4297 e7bc 4f2e 113e
000003c0: 0453 8abc 6d4d 0d3e 4e96 923c 2875 143d
000003d0: dba2 b1bc 2a23 893d 41b5 203c f37a 49bd
000003e0: 97ce df3d 6d19 bd3d eda4 17bd 20b3 233e
000003f0: f49f 3c3d 5008 043e a69c 7e3c 19d7 5abd
0.09651173 -0.06695754 -0.079271376 -0.08866482 -0.015635975 0.0975688 0.019981194 -0.012586603
-0.019947281 -0.031965744 -0.049401034 0.102584526 -0.044540394 -0.041173007 -0.040489964 0.09592397
-0.06967792 0.107832104 0.0002803345 -0.048544154 0.06863971 0.09115549 -0.03582916 0.06134425
-0.06782664 -0.04804688 0.07345957 0.10269271 -0.09684098 -0.073419966 -0.084027976 -0.011702034
-0.013918885 0.06844653 0.026204858 -0.08711683 -0.010038096 -0.06859103 0.009139935 0.033036627
-0.103997864 0.108650185 0.057800643 -0.11149168 -0.05011659 0.096794315 0.0049642352 -0.08896761
-0.05519618 -0.10308247 0.03229665 -0.057492647 0.103478864 0.028246751 -0.05969418 0.07805465
-0.023773424 -0.076309666 -0.09246372 -0.052532844 0.044817314 0.02340644 -0.035687923 -0.040838566
-0.030336456 -0.076823615 0.10160531 -0.10207334 -0.014174711 0.012703516 -0.00080216076 -0.005757506
-0.09044323 -0.048227448 -0.06278548 0.09978348 -0.036628984 -0.08269761 -0.07882016 -0.082268216
0.029541235 -0.0015597324 -0.03477919 0.007580267 0.14010723 -0.0533697 0.03756503 0.15192294
0.11826112 0.07407039 0.078779615 0.0074986736 -0.036316983 -0.017890796 -0.017837366 0.13313973
0.04804357 -0.055383917 -0.038086005 0.03849954 0.11521527 0.051809102 0.06975217 0.021759657
0.04855415 0.114939205 0.070870295 0.012757973 0.16160631 0.12660854 0.08731449 0.10132682
0.09401112 0.033875413 0.07137975 0.011710869 0.011567528 0.0502658 -0.023802008 0.14484884
-0.027605599 -0.021598218 0.031180546 0.11971188 -0.008550846 0.04232032 0.10903514 -0.04854075
0.15343103 0.10711107 0.08556654 0.04540144 0.11533647 0.013339903 0.057737015 0.13121542
-0.012460394 0.053964127 0.1282697 0.057532776 -0.018245026 0.067503884 0.028065022 -0.04895137
0.050486866 0.052438732 0.11972484 0.040458128 -0.03390775 0.14451745 0.0729758 0.017228415
0.1149523 0.13111216 0.12973802 0.13687557 0.0032363972 0.14937416 0.11839793 -0.02683916
0.10992453 -0.008238904 0.10567235 -0.0077808523 0.11151357 0.008775842 0.080660135 0.03224925
0.11515278 0.054668542 0.095696904 0.0135320965 0.11146247 0.117632784 0.065326825 0.023801707
0.072916046 -0.055330317 0.042366646 0.14821278 0.11251186 0.04537485 -0.0012491618 0.07932156
0.15651715 0.11056125 0.0433333 0.09028321 0.06651317 0.028476892 -0.025616955 0.0029734245
-0.01829802 -0.0066476157 0.1644943 -0.039298233 0.06181229 0.0624501 0.0013771517 0.042105637
0.09568017 -0.020864097 0.09276538 0.048576165 0.00095480593 -0.029658515 0.04486935 0.0028771658
0.100658625 -0.053591017 0.14063366 0.16403776 0.06712573 -0.01868096 -0.052024134 0.11087274
0.09483385 0.14764696 -0.0029767174 0.11977148 0.011691505 -0.028988821 0.067141004 0.023260234
0.106949136 -0.003679493 0.1272435 -0.02550645 0.084017225 0.13176875 0.024496483 -0.048457153
0.09747797 -0.042939905 -0.006306666 0.007233197 -0.0012830021 0.15820685 -0.028270368 0.14177822
-0.016885288 0.13799067 0.017893936 0.03624454 -0.0216841 0.0669616 0.009808839 -0.04918952
0.10928076 0.09233365 -0.03702252 0.159863 0.04605098 0.12893796 0.015540278 -0.05342779

main.4.bias f4 [80]
00000000: 66ed 2cbd bd36 103e 7c8a 62bc feba 113e
00000010: 355f 013e da3e 373d f8b8 ed3b 5ae0 4b3c
00000020: 8a19 043e 2a7b 47bd 8212 1f3e fcee 983d
00000030: 5c32 61bd ed1d bd3d 2eed 993d cefe af3c
00000040: 2336 0abd 9580 113e a09e c5bc ac28 96bc
00000050: b665 0d3d 7000 0fbc dd77 0dbd c1fa df3d
00000060: 652f 5a3c 0f14 8a3d 720b 923c b097 c73c
00000070: d0a8 c2bd 9012 113e 47f8 a63d faf7 223e
00000080: ac51 4abd 74a5 913d 4773 84bc 905d d3bc
00000090: 5ea7 e93c 93c2 de3d 63f8 c23d 3de9 25bd
000000a0: 1ee0 7abd 1ed2 273e 5541 d53d 9022 af3a
000000b0: 144b 0b3e f12f 2dbc 86dc 263d 256c c13d
000000c0: 0e88 2cbd 67ca 0b3e 563c 0a3e 349a 8dbb
000000d0: 6c92 4c3d 504a de3c c5ec e73c 20c0 5f3b
000000e0: 8f97 4fbd 1adb 6a3d 3e8e 9a3d f10d d0bb
000000f0: 310a 073e 4054 2b3d 35bc e93d ce75 313d
00000100: 7016 d5ba 153e c63c 84e7 e13d 1f7f 973d
00000110: 6c84 f93d 78c0 033e 225d 6ebd fd00 ef3d
00000120: 8757 87bc 001f a23d c63d dfbc 0944 bf3d
00000130: f7d4 db3c 65cc 123e e422 1d3e 5420 8e3d
-0.04221859 0.14083381 -0.013826963 0.14231488 0.12633975 0.044737674 0.007254716 0.012443626
0.12900367 -0.048701443 0.15534404 0.07467458 -0.054979667 0.092342235 0.075159416 0.021483805
-0.033743035 0.14209206 -0.02412349 -0.01832994 0.034520827 -0.008728132 -0.03453814 0.109364994
0.013316964 0.06742107 0.017827723 0.024364322 -0.09504855 0.14167237 0.08152824 0.15914908
-0.049394295 0.07111636 -0.01616825 -0.02580145 0.02852219 0.10876956 0.09520032 -0.040505636
-0.06124889 0.16388747 0.10412852 0.0013361741 0.13602859 -0.010570512 0.04073765 0.09444455
-0.04212194 0.13651429 0.13499579 -0.004321361 0.049944326 0.027135044 0.028311143 0.0034141615
-0.050681647 0.057337858 0.07546662 -0.006349318 0.13187481 0.041828394 0.11412851 0.043325238
-0.0016257297 0.024199525 0.11030486 0.07397293 0.121834606 0.1286639 -0.058194287 0.116701104
-0.016521228 0.07916069 -0.027251136 0.093391486 0.026834948 0.14335783 0.15345341 0.0693976

main.6.weight f4 [625, 80]
00000000: 5c3b aebd 64b6 333d f4f2 803d 2012 fa3c
00000010: ffdd a73d 6719 4abd 0a55 0b3e 46d7 37bc
00000020: 4bf2 2bbb d77b b83d 0c7c 093e 3247 c83d
00000030: aa57 f7bc 7305 323e a993 ec3d c4fe 1e3e
00000040: a980 b8bc 9cd7 d4bb aab7 0ebc 01ae 183e
00000050: 5062 a6bc 418c 143e a230 6e3d 9f80 c73d
00000060: f39a 813d 001f 07bd ba33 213e aef4 29bd
00000070: 2eb4 6d3c f9db 273e 92cc 433c db23 9a3c
00000080: a711 ad3c 4ce4 113e 6129 9d3c dc2d 383d
00000090: 2369 0e3e ff12 04bd 1891 423d 919e f13d
000000a0: 0f3a d83c 427e 1f3e 9d92 a83d 0b62 dd3d
000000b0: aed2 563d 1e93 fd3d e53c 4d3d 3b51 493d
000000c0: 3745 753b b45d b33d 6626 153e cb25 193e
000000d0: 1d8b 2d3e c42c ae3d 74f9 1a3d e712 983d
000000e0: b838 01bd 4833 123d 4f32 0f3e a5fa c53d
000000f0: 96cc 1b3e 50ba ca3d 9bab a33d be41 5a3d
00000100: d12f 5abc 4970 be3d 7b4c 1a3d aa6e 023b
00000110: bdd1 a53c e2b7 173e 58fe 803c 9828 0e3d
00000120: 8aaa 753d a1a3 9bbc 9cd5 9e3d bb67 093d
00000130: db43 c73c 9b1b 97bc 4a91 073e 097b 2e3e
00000140: 0085 de3d 201a 263e 7351 3f3d a084 a73c
00000150: 329b 683d 8da9 d43d 6475 113c 7b30 40bd
00000160: f833 263d bb89 2c3e 2af7 db3d 22f7 143e
00000170: a1e9 1e3e f72c 8c3d 7066 ba3d 27bf ae3c
00000180: c86c f23c 2bbb 073d 52b3 8bbb b22b e43c
00000190: 6c8f 033d ddc8 fa3c 1d70 bebc 006c 283d
000001a0: 4f37 203e 8b44 843d 67a6 103d a64b ac3d
000001b0: bd48 f03d 7156 2b3e 2866 2b3e 05c5 a53b
000001c0: 1948 d13d 939e 223d 246a 3a3d 9be2 693d
000001d0: ad01 9d3c 811a f43b 898b 433d 7471 c93c
000001e0: 09a6 763d fb16 d83d 1eb3 153d 0436 133e
000001f0: 6a11 413d f6d0 2b3e 63b8 ee3d 4838 bf3d
00000200: 6a53 723d 1b0a 523d 6c14 7e3d 3fd3 dd3b
00000210: cc0a 0e3e 8f3c 7f3d f9d9 4ebd a0d5 073d
00000220: d86c b03c 638a 00bd f4e5 143c 42c6 7d3c
00000230: adcd 2e3e 68be 2a3e 914c fa3d 2c49 2a3e
00000240: 1e03 49bd d685 4cbc cc12 f13d 0c6a 0f3e
00000250: 2c4a 803d 7297 f93d 89ac 56bc 5f50 013e
00000260: a91d ca3d fdc7 b2b9 1706 683c 5fb0 ed3d
00000270: 9c41 b23c 3611 f9bc 11d0 5d3c 2170 df3d
00000280: b718 4c3d 502f 993d d8d6 71bd d795 0e3e
00000290: 0777 263e 3d25 81bc 0113 4f3b efe3 603d
000002a0: 63f0 f23c f807 073e d2aa 09bd 2965 2d3d
000002b0: 12e3 0f3e 3e8b 273e f9d6 043e f7ad 2a3e
000002c0: d4ba 80bc 6a23 a93d cc1c 5f3d 878d 733b
000002d0: 0b4c e5bc f5d9 e1bc 769e d83c ff5a 153e
000002e0: e20b 2d3e 6fe6 0c3e fe7e b93d 9937 473d
000002f0: fff5 00bd 200e 35ba 8e63 0cbc 6e77 1f3d
00000300: fed4 64bd b1f8 15bd b355 fd3b 2d37 46bd
00000310: 5cff ef3d a26c 3d3c 08e9 0a3e fdf9 92bb
00000320: 0c2c 0a3e 3756 ec3d 3cd9 053e 2654 963d
00000330: a347 99bc 0281 043d 9c01 ae3d e492 37bc
00000340: 4b74 113e 1e8f f23c a516 3abd f6f2 293e
00000350: 8e4d 3fbd b802 243e 9cce c93d 83dc 763d
00000360: 608f 213c 5ed1 0e3e a989 283e 16dc 1f3e
00000370: 23ea 51bd 9ac5 c83d 81cc 143e 0a14 38bc
00000380: 083b f6bb 9bef 00bc bcae f9bc f99b 03bd
00000390: 4e5b ffbc 326e 063d 8308 683c 0aa1 f93d
000003a0: f802 a53d 8627 593d 4179 48bd 4369 d23d
000003b0: ab87 de3d b9fb 163e 0dfa 24bd 816f 053e
000003c0: 4bfe 2e3d 7383 e43c a95e 973d 15db 143b
000003d0: d7c6 ec3d a530 e03d 6c8e 9b3c 31e0 e33c
000003e0: aafd 79bd 6796 dd3d 8667 113e d7d0 753d
000003f0: 8285 5bbd f545 083e e7bf 37bd 60e1 113e
-0.08507416 0.043875113 0.0629634 0.03052622 0.08196639 -0.04934063 0.13606659 -0.011220759
-0.0026236947 0.090079956 0.13426226 0.097792044 -0.030193169 0.17384891 0.115516014 0.15526873
-0.022522287 -0.006495429 -0.008710781 0.14910127 -0.02031055 0.14506628 0.05815185 0.097413294
0.06328382 -0.03298855 0.15742388 -0.04149311 0.01450829 0.16392507 0.011950629 0.018815925
0.021126581 0.14247245 0.01918477 0.04496561 0.13907294 -0.03224468 0.047501653 0.11797822
0.026394872 0.15575507 0.08231089 0.10809716 0.052447014 0.12381576 0.0501069 0.049149733
0.0037425288 0.08758107 0.14565429 0.14955823 0.16947599 0.08504632 0.037835553 0.0742548
-0.03154823 0.035693437 0.13984035 0.09666947 0.15214762 0.098988175 0.079917155 0.053285353
-0.013317064 0.092987604 0.037670594 0.0019902387 0.020241613 0.1481624 0.01574628 0.034706682
0.05997709 -0.018998923 0.077555865 0.03354619 0.024324348 -0.01844578 0.13239017 0.17039122
0.108652115 0.16220903 0.046708535 0.020448983 0.05678863 0.10383902 0.008878086 -0.046921235
0.040576905 0.16849415 0.10740502 0.14547399 0.1551881 0.06844514 0.0910157 0.021331383
0.029592887 0.03313748 -0.00426332 0.027852867 0.0321192 0.030613357 -0.02324682 0.04111862
0.15646099 0.06458386 0.035314944 0.08412866 0.11732624 0.16732194 0.16738188 0.005058887
0.1021883 0.03970201 0.04551138 0.057100873 0.019165838 0.0074494486 0.047740493 0.024590231
0.060216937 0.10551258 0.036547773 0.14376074 0.047135748 0.16778931 0.11656263 0.09336907
0.05916158 0.05127917 0.062031195 0.0067695673 0.13871306 0.062313613 -0.050500844 0.033162713
0.021536276 -0.031381976 0.009088028 0.015489163 0.17070647 0.16674197 0.12221635 0.16629475
-0.04907524 -0.012483081 0.11771163 0.14005297 0.06264147 0.12187089 -0.013102659 0.12628315
0.098689385 -0.0003409981 0.014161608 0.11605906 0.0217598 -0.030403715 0.013538376 0.10910059
0.049828257 0.07479727 -0.05904278 0.13924347 0.16256343 -0.015764827 0.003159702 0.054904874
0.029655641 0.13186634 -0.033610173 0.042332802 0.14051464 0.1636171 0.1297263 0.16667925
-0.015714087 0.08258708 0.054470822 0.0037163214 -0.027990362 -0.02756975 0.026442748 0.14585494
0.16899064 0.13759778 0.09057425 0.048637006 -0.0314846 -0.0006906707 -0.008568658 0.038932256
-0.055867188 -0.036614124 0.0077311634 -0.048392463 0.11718628 0.011561545 0.13565457 -0.0044853673
0.13493365 0.11539882 0.1307115 0.07340269 -0.018710917 0.032349594 0.08496401 -0.011204455
0.14204518 0.02960926 -0.04543175 0.16596588 -0.04670482 0.16016662 0.09853861 0.06026889
0.009860843 0.13947055 0.16458763 0.156113 -0.05124868 0.098033145 0.14531137 -0.011235246
-0.0075143613 -0.007869626 -0.030478828 -0.03213117 -0.031171467 0.032819934 0.014162186 0.12188919
0.08057207 0.053016208 -0.04894376 0.10273983 0.1086572 0.14744462 -0.04027753 0.13030817
0.04272298 0.027894711 0.07391102 0.002271359 0.11561363 0.10946778 0.01898881 0.027816864
-0.06103293 0.108197026 0.14199647 0.06001362 -0.05359412 0.13307936 -0.044860747 0.1424613

main.6.bias f4 [625]
00000000: 6baa 653d 1441 26bd c61b 4dbd 35d0 103d
00000010: 34ca 373d 58d0 d33d afae 2cbd 6836 313d
00000020: da83 43bd c784 a0bb ffd3 0bbd 3d51 27bd
00000030: 3ed7 94bc 1125 59bd 68a0 0ebd eaab b63d
00000040: 2a07 5a3d 86e5 99bd bcff 19bd eb28 cd3d
00000050: 3a62 b63c f565 5fbb 54f1 6dbc 6926 9abd
00000060: f6a3 c13c e846 473d 3eaa 913d 28cd 26bd
00000070: cce9 9a3d 8237 e73c d5bb 623d 8a46 a7bd
00000080: d55f 893c 0a89 90bd 1fdb d33d 0ed1 94bd
00000090: daa9 a13d a7dc 7e3c 2e5e 4bbd 0f5f 0cbd
000000a0: 7831 873d 9237 a73d 6914 b2bc b3b5 893d
000000b0: 2b1c d4bd 8fb8 29bd 0834 78bd 9312 423b
000000c0: b090 43bd 8a40 b33d 00fd e93d 5ca7 db3d
000000d0: 43e7 013e e694 ac3d 4e81 263d e8c2 5bbb
000000e0: 7298 153d 88fb a83d 0d75 6dbd 6728 9abd
000000f0: 8ee6 003e 1bda cd3d cfff 013d 0632 893d
00000100: e2b4 13bc 801b d1bb 239b 113d 8fa6 883d
00000110: 8305 f8bc 8b5b c33c a2d5 9bbd 48e7 a93d
00000120: a26e 4e3d 7491 9ebb 7d04 843d 0532 6a3d
00000130: 5833 443c d64c b83d fd9e 213d f8f9 53bd
00000140: d9aa 47bc 4510 983c b393 2c3d bf09 88bd
00000150: 7784 88bd 21ec 6d3d e35a 023e a68f 90bd
00000160: a3bc 823d 0a66 013c 939a 5dbb 7d88 a8bd
00000170: eabd 4e3d feb5 af3d 31c8 6cbc c6ea 07bd
00000180: e781 dc3d bd3e a23d eb63 36bd 4bc0 8b3d
00000190: 12d4 023e 4128 883c cb76 3a3d 841d b53c
000001a0: b6f8 83bb edb3 743c 5d59 7a3d 3654 b43d
000001b0: cdb3 b13d f8b2 23bd 7d2a ad3d 23ef 233c
000001c0: b133 bb3d a9df cfbc 50ee 873c 59e1 b7bd
000001d0: 1ae1 803d f2b7 07bd 01d3 c53d edb5 8abd
000001e0: 5677 44bd 2677 943d c178 e5bd 8eb9 8ebd
000001f0: 1b50 5d3c 5c7c 493d 5be1 1a3e 693d 423d
00000200: de78 d63d aa17 63bd 7591 c73d 35ac b13d
00000210: c911 8f3d bded a3bd 0c01 203d d7e6 a43d
00000220: ac61 f53d cef4 44bd 24c5 253d 1a5d 1b3d
00000230: 89a4 29bc 27ee 9fbd 6fdb ce3d 4bcf 8a3d
00000240: 55fc c63c d5f3 8abd e0ea 15bc 5603 b3bd
00000250: cfbd aa3d e84f 88bc c7af f4bc 2b81 ca3d
00000260: 300f 0c3e f8ae 823d 7f1b 8e3c f006 8b3c
00000270: 2491 23bd 5814 d93d fc3d eb3d 55d2 69bd
00000280: 2319 72bd 1fbf d13c 17a9 8f3c 0449 30bd
00000290: 89d3 973d db8b 923d 7fca 143c 2019 b0bd
000002a0: 367b 9f3d 09b8 383b 459f 7abd 7b90 b33c
000002b0: db41 a63d bb92 7b3a 6a51 afbd 9c4b 313d
000002c0: 2938 613d 6ac6 f4bb 9277 df3c 7184 bbbd
000002d0: 7013 31bd c65a a13d 01a0 82bd de0e 8b3c
000002e0: eabe 35bd f913 3f3d eb37 9f3d abdf 29bd
000002f0: ef90 16bd a036 653c 3c82 0ebd 1da0 85bd
00000300: 2a2d babd 3afb 9b3d c101 063d 80af 9ebd
00000310: 93d8 483d 11bf ab3d 84e7 a73d f37c c3bd
00000320: 399d f63c 3d74 d53d 886e 3cbd 3cc3 f23a
00000330: 200a 02bd 8897 b73c 45bb c33d b4e3 e73d
00000340: b78b d43c dd5b 083d 1fca e43d 8873 a8bd
00000350: 4c64 823c cef0 e1ba 67c6 e33c ef88 09bd
00000360: 2045 4abc 1358 533c de50 4a3c 504c 493c
00000370: 30f7 bb3d 18e3 933c 627d 133d 8c6f a03d
00000380: fb90 dcbc a7d2 11bd 466b bbbd b1c1 1c3d
00000390: fbdd 63bc 70cc 0c3d 401f a9bb 9e93 8ebd
000003a0: 7ca9 b3bd 707b e4bc 846d ee3d 613e 743d
000003b0: ff23 b43d 4bcb 91bd 9e31 d7bc 2d9d dbbc
000003c0: 183f ceba 6e33 4d3d 8707 5ebd 1e27 a73d
000003d0: 8a83 25bd 1783 8ebd 7a71 b93c 5d00 ae3d
000003e0: f2e0 8bbd 42ae c23d 39c7 d0bc c833 243e
000003f0: fceb a9bd 4c1a e63d d1b7 293d bbbb 7b3d
0.056070726 -0.040589407 -0.050075315 0.03535481 0.04487057 0.10342473 -0.04215878 0.043264776
-0.047733165 -0.004898641 -0.034137722 -0.04084896 -0.018169042 -0.053013865 -0.034820944 0.08919509
0.05322949 -0.07514481 -0.037597403 0.1001757 0.022263635 -0.003408787 -0.014522869 -0.075268574
0.023637753 0.048651606 0.07112549 -0.040722996 0.075641245 0.02822471 0.05535491 -0.08167751
0.01676933 -0.07057388 0.103445284 -0.072664365 0.07893725 0.015555537 -0.049650364 -0.034270342
0.06601232 0.08164896 -0.021738248 0.067241095 -0.10356935 -0.041435774 -0.060596496 0.0029613122
-0.047745407 0.08752544 0.11425209 0.10725281 0.12685876 0.084268376 0.04065066 -0.0033532921
0.036522336 0.08251101 -0.057972956 -0.075272374 0.1258795 0.10051366 0.0317381 0.06698994
-0.009015294 -0.006381452 0.03554834 0.066723935 -0.030276066 0.023847362 -0.076091066 0.082960665
0.050398476 -0.0048391167 0.064461686 0.05717661 0.011975132 0.0899903 0.039458264 -0.05175206
-0.012186729 0.018562445 0.042133044 -0.06642484 -0.06665891 0.05808652 0.12729983 -0.07058649
0.06383636 0.007897863 -0.0033814057 -0.08229158 0.050474085 0.08579634 -0.014452026 -0.03318288
0.107669644 0.07922123 -0.044528883 0.06823786 0.12776211 0.016620757 0.045523446 0.0221088
-0.0040274514 0.014935476 0.06112038 0.088051245 0.086768724 -0.0399656 0.084553696 0.010005745
0.09140719 -0.025375204 0.016593128 -0.089785285 0.06292935 -0.03313441 0.096593864 -0.06772981
-0.04796537 0.07249288 -0.112046726 -0.069689855 0.013507868 0.049190864 0.15125029 0.047421847
0.10472272 -0.05544249 0.097445406 0.08675424 0.06985814 -0.08004329 0.0390635 0.08051842
0.1198152 -0.048085026 0.04047121 0.037930585 -0.01035417 -0.07809096 0.101004474 0.06777819
0.024290243 -0.067847885 -0.009150237 -0.08740871 0.08336984 -0.016639665 -0.029868973 0.09887918
0.13677669 0.06381029 0.017347096 0.016971081 -0.03993334 0.105995834 0.11486432 -0.057085354
-0.059106003 0.025603829 0.017536683 -0.043038383 0.07413394 0.071555816 0.009081482 -0.08598542
0.077871725 0.0028185865 -0.061187048 0.02191948 0.0811803 0.00095967547 -0.085604504 0.043284997
0.0549852 -0.007469942 0.027278695 -0.091561206 -0.043231428 0.07878642 -0.063781746 0.016974863
-0.044371523 0.046649907 0.077743374 -0.041473072 -0.036759313 0.013990074 -0.03479217 -0.0652468
-0.090906456 0.07616277 0.032716516 -0.07748318 0.049034666 0.083860524 0.08198455 -0.095453165
0.030104266 0.10422561 -0.04600385 0.0018521319 -0.031747937 0.022411123 0.09557203 0.11322728
0.025945527 0.033290733 0.11171364 -0.08225161 0.015916966 -0.0017237903 0.027804567 -0.033577856
-0.012345582 0.0128994165 0.012348382 0.012286261 0.09178007 0.018052623 0.036008246 0.07833776
-0.0269246 -0.035601284 -0.0915132 0.038270656 -0.013907905 0.034374654 -0.005161196 -0.069617495
-0.08772561 -0.02789089 0.11641982 0.0596298 0.08795928 -0.07118853 -0.026268777 -0.026808346
-0.0015735356 0.050097875 -0.054206397 0.08161758 -0.04040865 -0.06958597 0.022637118 0.08496163
-0.06830014 0.09505893 -0.025485622 0.16035378 -0.082969636 0.112354845 0.041435067 0.06145833
