loss_curves/netG_50k_mlp_160df.pth (torch_old, 674689 bytes, 8 tensors)

main.0.weight f4 [160, 100]
-0.0014040618 0.05824696 -0.0875766 -0.079326324 -0.04078284 0.027426394 -0.00071877846 0.085385256
-0.0137023 0.02614391 -0.03125106 -0.016417189 -0.10094948 -0.06971758 -0.042413786 0.0012384955
0.042774327 0.062404934 -0.07357369 -0.04645985 0.037883762 0.08706505 -0.023573611 0.08293322
-0.015485546 0.010037066 0.098494664 -0.096727364 -0.06706122 -0.022812959 -0.044740286 0.09213628
-0.06587191 -0.046718195 -0.07314812 -0.10116251 -0.060775068 0.09349684 0.045482557 0.051112846
0.0070173275 -0.052595135 0.01409868 -0.100599185 -0.07669194 -0.054535784 0.06887042 0.05982659
-0.047205314 -0.0023555344 0.06822758 0.107504874 0.042574458 0.013309903 0.07344131 -0.06297958
0.020672118 -0.08201184 -0.07456482 -0.055238385 0.047701612 0.045226283 -0.06291369 0.030450456
0.05951366 -0.013808269 0.009305448 0.024577977 0.069171734 0.10194697 -0.08235677 -0.04093616
0.03908857 0.089060746 0.09457458 0.09653985 0.021980947 -0.09306617 0.010547309 -0.06917997
-0.09870511 0.092983715 0.07801046 -0.1067394 0.016838055 -0.01827138 -0.02275833 -0.04475871
0.042451903 -0.06015221 0.03667528 0.050017387 0.0750812 0.03948004 -0.10516487 -0.06657937
0.052354813 0.02036625 -0.08370471 -0.06394861 0.09738219 0.06823846 -0.045536015 -0.02490646
-0.09834085 -0.0014931783 -0.077111766 -0.078900136 -0.0046611754 0.010592588 -0.04175967 0.05774183
-0.06307755 0.0901163 0.07005696 -0.08540529 -0.026682884 0.0024470738 0.01770613 0.021238098
0.04256952 0.0035994826 -0.05280143 0.046932835 -0.09768305 -0.061909527 -0.026707655 -0.046619773
-0.037453547 -0.08123478 -0.019741554 0.021903353 -0.06577266 -0.007913249 0.07041933 -0.011557953
0.004966254 -0.010314712 0.021114096 0.06464208 0.09513502 0.06544214 0.095893964 -0.008467797
-0.09138273 -0.050729588 0.06784682 0.0007687647 -0.04927306 -0.07739763 -0.09471971 -0.08689288
-0.020559097 0.054880805 0.0547295 -0.09598609 0.062208198 -0.078996696 -0.024051933 -0.036304373
-0.020388478 -0.01709577 -0.09107304 -0.08895504 -0.014128648 0.0053819 -0.04692353 0.03733292
-0.09124595 -0.009192764 0.09140933 -0.043975756 0.09371715 0.03222666 -0.09143894 0.05879357
-0.010786251 -0.045183826 0.08016192 -0.08296829 0.011046181 -0.021160593 0.074595496 0.028150782
0.0484245 0.035986014 -0.026630227 -0.020332126 -0.08448465 0.05357937 0.07830249 0.06784206
-0.07307858 0.0037727475 -0.06993634 -0.05355463 -0.05843506 0.037203375 -0.06430478 -0.0053869113
0.005147164 0.071885146 -0.0819082 -0.074511304 -0.061037555 0.076969646 -0.03704579 0.08996017
0.037184153 0.014059201 -0.0015193946 -0.016352054 0.014533754 -0.026343426 -0.0019989565 0.012763677
-0.08076049 -0.053758007 0.08710258 -0.084402144 -0.008180389 0.10471052 0.038517814 0.0038370383
-0.09329397 0.050809577 -0.07453726 -0.0262888 -0.033299293 -0.011589016 0.0010986228 0.090099916
0.01520376 0.09574131 0.06423695 -0.067217804 0.04665391 -0.07737483 -0.04568577 0.031854715
0.03720618 0.07681344 -0.037144713 0.00057596224 0.05534145 -0.10163421 0.07381607 -0.09069409
-0.0010067727 -0.017341148 -0.05940802 0.013767884 0.08916244 -0.029230213 -0.061430182 -0.039159253
00000000: 7f08 b8ba 5d94 6e3d 5c5b b3bd d775 a2bd
00000010: e80b 27bd 51ad e03c 686c 3cba 77de ae3d
00000020: 9d7f 60bc c12b d63c 1d01 00bd 577d 86bc
00000030: 9abe cebd 17c8 8ebd 14ba 2dbd 0355 a23a
00000040: 2234 2f3d 519c 7f3d cead 96bd af4c 3ebd
00000050: 012c 1b3d 294f b23d 721d c1bc e4d8 a93d
00000060: 16b7 7dbc 8272 243c 92b7 c93d ff18 c6bd
00000070: 6557 89bd 3ee2 babc 9741 37bd f2b1 bc3d
00000080: dae7 86bd 945b 3fbd aece 95bd 4a2e cfbd
00000090: 47ef 78bd 457b bf3d eb4b 3a3d b45b 513d
000000a0: 9cf1 e53b ff6d 57bd 26fe 663c f206 cebd
000000b0: aa10 9dbd ea60 5fbd ef0b 8d3d ba0c 753d
000000c0: 5c5a 41bd 4f5f 1abb e7ba 8b3d 842b dc3d
000000d0: 8e62 2e3d c811 5a3c 6668 963d 70fb 80bd
000000e0: 9358 a93c d3f5 a7bd 71b5 98bd a541 62bd
000000f0: c462 433d 323f 393d e5d8 80bd 3c73 f93c
00000100: 98c4 733d 143c 62bc e175 183c c157 c93c
00000110: e9a9 8d3d 93c9 d03d abaa a8bd adac 27bd
00000120: 561b 203d 7b65 b63d 51b0 c13d afb6 c53d
00000130: 6311 b43c 7a99 bebd 9fce 2c3c 3aae 8dbd
00000140: e825 cabd 3f6e be3d f3c3 9f3d 309a dabd
00000150: f6ef 893c dcad 95bc ad6f babc e954 37bd
00000160: 0ce2 2d3d 2a62 76bd d238 163d 08df 4c3d
00000170: 2cc4 993d d3b5 213d ae60 d7bd c45a 88bd
00000180: 0072 563d 1fd7 a63c 606d abbd 7df7 82bd
00000190: 5070 c73d 9bc0 8b3d f983 3abd a208 ccbc
000001a0: ed66 c9bd c0b6 c3ba c6ec 9dbd 6596 a1bd
000001b0: c6bc 98bb 898c 2d3c 300c 2bbd b282 6c3d
000001c0: cd2e 81bd e58e b83d 067a 8f3d f8e8 aebd
000001d0: 1096 dabc 165f 203b 720c 913c 85fb ad3c
000001e0: 615d 2e3d 4ce5 6b3b 5046 58bd a53c 403d
000001f0: 0d0e c8bd d894 7dbd 03ca dabc 60f4 3ebd
00000200: e468 19bd 6c5e a6bd 0ab9 a1bc a96e b33c
00000210: d1b3 86bd 92a6 01bc 0238 903d 925d 3dbc
00000220: f5bb a23b 0aff 28bc 78f7 ac3c 1163 843d
00000230: 26d6 c23d 8706 863d 0e64 c43d 84bc 0abc
00000240: de26 bbbd d4c9 4fbd 46f3 8a3d ed86 493a
00000250: 8cd2 49bd a682 9ebd 68fc c1bd e5f4 b1bd
00000260: 8d6b a8bc b2ca 603d 0a2c 603d 5b94 c4bd
00000270: 06ce 7e3d 05c9 a1bd 8f08 c5bc e5b3 14bd
00000280: bd05 a7bc 6e0c 8cbc 8184 babd 0f2e b6bd
00000290: d87b 67bc a65a b03b e332 40bd 67ea 183d
000002a0: 28df babd 3f9d 16bc d134 bb3d ec1f 34bd
000002b0: c7ee bf3d 1a00 043d 5744 bbbd 87d1 703d
000002c0: d1b8 30bc ad12 39bd ef2b a43d 47eb a9bd
000002d0: 0bfb 343c fb58 adbc 86c5 983d 789c e63c
000002e0: c558 463d 1266 133d a227 dabc 8f8f a6bc
000002f0: 4a06 adbd 0b76 5b3d 0e5d a03d c7f0 8a3d
00000300: 39aa 95bd 3340 773b c93a 8fbd 1a5c 5bbd
00000310: 9a59 6fbd 9162 183d 39b2 83bd b084 b0bb
00000320: 8ba9 a83b 8538 933d 7dbf a7bd 6299 98bd
00000330: 8402 7abd 43a2 9d3d 54bd 17bd 0a3d b83d
00000340: 694e 183d 9058 663c 6c26 c7ba bef4 85bc
00000350: fc1e 6e3c 2bce d7bc ed00 03bb be1e 513c
00000360: c165 a5bd 5b31 5cbd d662 b23d 08db acbd
00000370: 0a07 06bc 7872 d63d dbc4 1d3d d276 7b3b
00000380: e910 bfbd b41d 503d fea6 98bd 9c5b d7bc
00000390: d764 08bd dbdf 3dbc aaff 8f3a 4e86 b83d
000003a0: 3119 793c 0514 c43d a98e 833d 7da9 89bd
000003b0: 2c18 3f3d b276 9ebd 0121 3bbd 177a 023d
000003c0: 8265 183d 5d50 9d3d 0e25 18bd 2cfc 163a
000003d0: b7ad 623d 9925 d0bd e12c 973d d3bd b9bd
000003e0: b0f5 83ba 060f 8ebc d355 73bd b192 613c
000003f0: cc9a b63d 3374 efbc 379e 7bbd 7465 20bd

main.0.bias f4 [160]
-0.04643051 0.046831913 0.014887246 0.07570023 0.07575873 0.06553759 -0.07986702 -0.039844334
-0.079316944 0.014964096 0.0583189 0.07952281 -0.041528005 0.02335823 0.087870605 0.078540206
0.070315555 0.004917604 -0.08528872 0.029011546 0.03746427 0.057393845 -0.025224658 -0.044188593
-0.0070031984 0.07240017 0.08825124 -0.07243274 0.002272606 0.058953978 0.06509551 0.10368756
0.06716175 -0.023355972 0.09299187 0.023990398 0.0899306 -0.05963679 -0.0037580344 -0.07462674
0.07005328 0.037199385 0.086549506 0.002763173 0.092777975 0.08428363 0.114126176 -0.038609616
0.036329824 0.047436178 0.08910838 0.037386533 -0.076923184 0.0887943 0.021776715 -0.029909477
0.009079092 -0.044867925 0.059609033 0.11440223 0.0896169 0.0010149952 -0.07836987 -0.047665577
-0.055119738 -0.057063982 0.098712 -0.037978083 0.061696146 -0.010767457 0.0069122612 -0.08686068
0.05264221 0.07983487 -0.06425015 -0.011397698 -0.0038778966 0.08277176 0.046755332 -0.026391761
0.09046531 0.034908667 -0.025189644 -0.05482451 0.06939932 0.07863601 0.102037646 0.06202227
0.03978626 -0.079110995 0.018709758 -0.003347952 0.01632141 0.04882789 -0.005119472 0.01691054
0.09203868 0.03680656 0.061615344 0.080777496 0.0026448588 0.005456742 -0.08370198 0.012346009
-0.041592777 0.054291423 -0.018852834 0.08059031 -0.0588437 0.036368016 0.02648825 0.027147947
-0.060090758 -0.049394403 0.097501345 0.042874057 -0.030691769 0.05454057 0.07491404 0.04899739
-0.015125902 0.045040138 -0.07371909 0.060263187 -0.03799831 -0.057158533 0.0103612505 -0.047229055
-0.024417892 -0.03123102 0.03715997 -0.0030123335 0.097480595 -0.04083116 0.09361657 0.020870453
0.005856275 0.10266475 0.0701793 -0.055606533 0.068206415 0.07421429 0.017436488 0.07747288
0.049473416 0.09231648 -0.055245508 -0.075981125 0.003949382 0.021301849 -0.07841501 -0.06329456
0.08984198 -0.060010694 0.053948943 0.08905036 -0.010964328 -0.03117406 -0.015006928 0.08673742
00000000: eb2d 3ebd d2d2 3f3d a3e9 733c b908 9b3d
00000010: 6527 9b3d 9238 863d 5291 a3bd d033 23bd
00000020: ec70 a2bd f82b 753c cddf 6e3d dbdc a23d
00000030: 4519 2abd c259 bf3c 81f5 b33d b0d9 a03d
00000040: 9a01 903d da23 a13b daab aebd 9fa9 ed3c
00000050: 2274 193d cf15 6b3d f1a3 cebc 19ff 34bd
00000060: 167b e5bb 8a46 943d 11bd b43d 9e57 94bd
00000070: 00f0 143b ba79 713d cb50 853d 255a d43d
00000080: 198c 893d 0655 bfbc 8672 be3d 8387 c43c
00000090: 892d b83d b545 74bd 5b49 76bb e7d5 98bd
000000a0: 1878 8f3d 625e 183d de40 b13d 5a16 353b
000000b0: 6102 be3d e59c ac3d fcba e93d 1e25 1ebd
000000c0: 95ce 143d 704c 423d 747e b63d 9f22 193d
000000d0: e789 9dbd c9d9 b53d 1565 b23c b804 f5bc
000000e0: 79c0 143c 6ec7 37bd 9a28 743d b74b ea3d
000000f0: 1189 b73d 9609 853a 6280 a0bd fb3c 43bd
00000100: 3cc5 61bd ecbb 69bd 8429 ca3d e88e 1bbd
00000110: 19b5 7c3d fd69 30bc 4080 e23b 03e4 b1bd
00000120: 5c9f 573d 7780 a33d 9595 83bd 69bd 3abc
00000130: 4f24 7ebb 3e84 a93d 8582 3f3d 8933 d8bc
00000140: e045 b93d 64fc 0e3d 835a cebc aa8f 60bd
00000150: 3b21 8e3d eb0b a13d 1df9 d03d 100b 7e3d
00000160: ebf6 223d f204 a2bd 3545 993c 5069 5bbb
00000170: 7ab4 853c c1ff 473d 3ec1 a7bb f987 8a3c
00000180: c77e bc3d 7ac2 163d 5f60 7c3d ac6e a53d
00000190: 5e55 2d3b 78ce b23b f26b abbd ea46 4a3c
000001a0: 305d 2abd af60 5e3d 4271 9abc 880c a53d
000001b0: 1706 71bd a1f6 143d e3fd d83c 5f65 de3c
000001c0: ba21 76bd c951 4abd c9ae c73d b59c 2f3d
000001d0: 4e6d fbbc ef65 5f3d 886c 993d 7db1 483d
000001e0: a2d2 77bc 027c 383d 09fa 96bd 88d6 763d
000001f0: 1ea4 1bbd 111f 6abd 3cc2 293c 4173 41bd
00000200: 0808 c8bc 32d8 ffbc 0d35 183d 926a 45bb
00000210: e8a3 c73d 933e 27bd 0bba bf3d 83f8 aa3c
00000220: ffe5 bf3b e541 d23d 2aba 8f3d adc3 63bd
00000230: ceaf 8b3d a9fd 973d f7d6 8e3c 1aaa 9e3d
00000240: a3a4 4a3d 6c10 bd3d 1d49 62bd fe9b 9bbd
00000250: d169 813b 3781 ae3c 0c98 a0bd 94a0 81bd
00000260: 12ff b73d c6cd 75bd 91f9 5c3d 0960 b63d
00000270: baa3 33bc be60 ffbc 9edf 75bc 63a3 b13d

main.2.weight f4 [160, 160]
0.06268706 -0.052969772 -0.04829821 0.051243883 -0.044096652 -0.0035911403 0.0004031399 0.08311521
-0.04201505 0.005320932 0.078603975 0.072581984 -0.06014452 -0.044143133 0.055696808 -0.0136676505
0.073621705 0.039869756 0.07321824 -0.01855414 0.027785318 -0.040861063 -0.050848458 -0.010464365
0.08999076 0.07464844 0.073194094 0.07561563 -0.05795603 0.07169218 0.07922858 -0.003198371
-0.049222194 -0.0043863878 0.079557 -0.023072692 -0.018483307 -0.029553326 -0.023404593 -0.005326694
0.025270853 0.061370894 0.01831877 -0.05123651 0.076689854 0.018196339 -0.012042754 -0.044461027
0.029989453 0.04380732 -0.048904266 -0.04485616 0.05885999 0.042933162 0.0019291362 0.0075748716
-0.0140741 0.03496066 0.028357383 0.037764724 0.040038485 0.03887991 0.039222997 -0.015601231
0.09477456 0.048501782 0.0010583625 0.018871695 -0.05763576 -0.012141898 -0.008865061 0.051748447
0.09575373 -0.008502626 0.08345745 0.03565908 -0.02813029 -0.026282473 0.010284258 0.019777026
-0.0061070127 0.056268208 0.09332787 0.0398311 0.07361751 0.026008021 -0.011769585 0.07649606
0.091151 -0.030947305 -0.020768104 0.0813254 0.050387707 0.089611605 0.06899325 0.09140636
0.011882135 0.021599995 -0.03846315 0.029680375 0.06504338 0.0030193487 0.027282357 -0.032077152
0.081055164 -0.055098683 0.007871142 0.0874692 -0.0041375556 -0.023790324 0.0027272166 -0.02274372
-0.026587581 0.07833466 0.04398269 0.053548872 -0.051924087 0.042533316 -0.016661525 -0.029597577
-0.02301277 0.07922386 -0.040111456 -0.020918202 -0.05260173 0.07020636 0.083166994 0.042862944
0.08223295 0.023737669 0.008989135 0.09062665 0.08381864 0.08235971 0.078927904 0.080388755
0.059821762 -0.011865703 -0.02320194 0.020673532 -0.012609461 -0.03616296 0.052241396 0.093287915
-0.052271597 -0.043658894 0.063942656 -0.058100037 -0.05484598 0.045077506 -0.060699064 0.04795078
-0.041352984 0.028673999 -0.05722963 0.09465274 0.009004337 0.0873089 0.012649709 0.04057799
0.047081564 -0.032247953 -0.016017895 0.011894884 0.079170726 0.006225348 0.091166474 0.08294586
0.052253813 -0.06077755 -0.012108412 -0.055998374 -0.06154534 0.008806067 0.08820068 0.06892318
0.029774016 -0.038493108 -0.046455752 -0.024437236 0.04380221 0.009747365 -0.04153798 0.051193986
-0.05570953 0.023382084 -0.010115331 0.09049107 -0.060244802 0.07926809 -0.0027329917 -0.046751652
-0.009022337 0.0010106872 0.008493939 0.03668569 0.07837832 0.026463566 0.06549016 -0.050062634
-0.026485033 -0.048175342 0.03485371 0.085411616 -0.0550194 -0.003009355 0.0052806702 -0.03351852
-0.04747753 0.06123985 -0.012716771 -0.033208445 0.00096808857 -0.05403227 0.08564449 0.030050606
-0.0074045244 0.03880151 0.06545554 0.0039131786 0.04733537 -0.060583744 0.076447554 0.068498686
-0.0162314 0.044934608 0.036948703 -0.0062174415 0.091394804 0.035385884 -0.045547776 0.027138812
-0.01030503 -0.06288724 0.06949838 0.028544923 -0.050516114 0.05072862 -0.02401111 0.074692845
0.004800061 0.0029189284 -0.047895797 -0.027280692 0.069780126 0.05161338 -0.022822807 0.019303793
-0.0038861227 -0.050968863 0.04076158 -0.021488875 0.063044086 0.005633454 0.0360931 -0.0025124482
00000000: 1362 803d d5f6 58bd 58d4 45bd 1be5 513d
00000010: b19e 34bd 5659 6bbb 855c d339 4f38 aa3d
00000020: f917 2cbd 365b ae3b 1ffb a03d dda5 943d
00000030: 1a5a 76bd 6ecf 34bd 5622 643d 48ee 5fbc
00000040: fac6 963d 784e 233d 72f3 953d dafe 97bc
00000050: 099e e33c ee5d 27bd 7946 50bd ba72 2bbc
00000060: 134d b83d 48e1 983d c9e6 953d 5edc 9a3d
00000070: 4d63 6dbd 5ad3 923d 9842 a23d c39b 51bb
00000080: 369d 49bd b0bb 8fbb c8ee a23d f102 bdbc
00000090: 4e6a 97bc d119 f2bc fdba bfbc 8c8b aebb
000000a0: d204 cf3c 0c60 7b3d 3f11 963c 60dd 51bd
000000b0: 920f 9d3d 7d10 953c f94e 45bc c41c 36bd
000000c0: 71ac f53c 4e6f 333d d74f 48bd 18bb 37bd
000000d0: 2c17 713d afda 2f3d 12db fc3a a136 f83b
000000e0: 0e97 66bc e932 0f3d be4d e83c 2faf 1a3d
000000f0: 65ff 233d 8a40 1f3d 4ba8 203d 4e9c 7fbc
00000100: 2a19 c23d cea9 463d c1b8 8a3a d098 9a3c
00000110: 7a13 6cbd d0ee 46bc c33e 11bc 2ef6 533d
00000120: 881a c43d 994e 0bbc bdeb aa3d 410f 123d
00000130: 7e71 e6bc 574e d7bc 4e7f 283c 6e03 a23c
00000140: 561d c8bb 7e79 663d af22 bf3d ef25 233d
00000150: c7c4 963d c60e d53c 38d5 40bc f7a9 9c3d
00000160: 60ad ba3d 3485 fdbc df21 aabc ee8d a63d
00000170: 5763 4e3d 4a86 b73d 554c 8d3d 4233 bb3d
00000180: 49ad 423c 79f2 b03c 898b 1dbd 4224 f33c
00000190: 7735 853d 44e0 453b 407f df3c 5563 03bd
000001a0: 4000 a63d 28af 61bd f6f5 003c 0d23 b33d
000001b0: 5594 87bb ede3 c2bc 1abb 323b 0a51 babc
000001c0: 33ce d9bc ec6d a03d 3127 343d 1056 5b3d
000001d0: 5aae 54bd 6a37 2e3d c07d 88bc 9e76 f2bc
000001e0: 4785 bcbc 1e40 a23d e94b 24bd a65c abbc
000001f0: e974 57bd 5ac8 8f3d 7553 aa3d 0e91 2f3d
00000200: c069 a83d 8075 c23c 2a47 133c 779a b93d
00000210: 1ba9 ab3d 35ac a83d f4a4 a13d dca2 a43d
00000220: aa07 753d 5e68 42bc ff11 bebc 8a5b a93c
00000230: ea97 4ebc 9d1f 14bd 13fb 553d bc0d bf3d
00000240: be1a 56bd abd3 32bd 5ef4 823d 4efa 6dbd
00000250: 2ea6 60bd 31a3 383d 959f 78bd 0968 443d
00000260: bf61 29bd bce5 ea3c 9e69 6abd 4cd9 c13d
00000270: ed86 133c 02cf b23d ba40 4f3c 1b35 263d
00000280: 99d8 403d 6e16 04bd f637 83bc c2e2 423c
00000290: 4324 a23d 01fe cb3b 7db5 ba3d 85df a93d
000002a0: 1808 563d e1f1 78bd 5c62 46bc 8d5e 65bd
000002b0: f716 7cbd 5247 103c 8fa2 b43d 9927 8d3d
000002c0: a3e8 f33c f3aa 1dbd 6348 3ebd 9930 c8bc
000002d0: f269 333d 69b3 1f3c bb23 2abd c9b0 513d
000002e0: ad2f 64bd c98b bf3c c6ba 25bc 6253 b93d
000002f0: 41c3 76bd 4f57 a23d fe1b 33bb a97e 3fbd
00000300: 6dd2 13bc 0979 843a 2a2a 0b3c bc43 163d
00000310: d084 a03d 1fca d83c b41f 863d 7a0e 4dbd
00000320: 24f7 d8bc 8253 45bd c4c2 0e3d 49ec ae3d
00000330: 065c 61bd 9938 45bb 7909 ad3b b74a 09bd
00000340: cc77 42bd a3d6 7a3d 015a 50bc 9405 08bd
00000350: 53c7 7d3a f150 5dbd 6166 af3d b02c f63c
00000360: a7a1 f2bb 55ee 1e3d 8e0d 863d 1f3a 803b
00000370: bce2 413d a926 78bd 8990 9c3d 0a49 8c3d
00000380: b7f7 84bc 5a0d 383d 8657 173d aebb cbbb
00000390: 332d bb3d caf0 103d 4e90 3abd 3752 de3c
000003a0: 6ed6 28bc 06cb 80bd 2b55 8e3d 0bd7 e93c
000003b0: fce9 4ebd d0c8 4f3d f3b2 c4bc 90f8 983d
000003c0: d549 9d3b 7e4b 3f3b 622e 44bd c27b dfbc
000003d0: e2e8 8e3d 8d68 533d e5f6 babc fd22 9e3c
000003e0: 52ae 7ebb bac4 50bd 9df5 263d 7009 b0bc
000003f0: 421d 813d d698 b83b 5cd6 133d e3a7 24bb

main.2.bias f4 [160]
-0.029378926 0.0746166 0.036902502 0.043875225 -0.07387887 -0.022553736 0.004947488 0.028966678
0.021708418 -0.080625534 -0.059262924 0.0020811216 0.09099694 -0.0120649375 0.081854805 0.07271752
0.003217991 -0.008031549 0.022369077 0.056510895 0.0500235 -0.01673129 0.063893236 -0.061748
0.0070331004 0.037609942 0.009974757 0.021393763 -0.058694493 0.018791758 0.061192337 0.061543286
0.07829983 0.06945937 0.089152105 0.07116551 -0.0013980966 0.029861875 -0.066959314 -0.000883825
0.05964758 -0.043582853 -0.046166047 0.059126765 0.030354654 0.07992537 0.014473548 0.029218258
0.04582665 0.06494087 -0.056583684 -0.016487762 0.06387783 -0.045025542 -0.053949345 0.05053633
0.041365918 0.026028361 0.03857921 0.09114066 0.050658416 -0.0065927007 0.0608207 -0.047919948
0.08322125 0.03133438 0.027155181 -0.07151882 -0.028738555 -0.025544029 -0.0016059714 0.032434322
0.07806059 -0.00633169 -0.0053675915 0.060935896 0.01412663 0.05281878 -0.023707518 -0.046130013
0.09552998 -0.060343444 -0.016675817 -0.06520928 0.046234556 -0.06133179 -0.0567751 0.035643857
0.008243224 0.020738114 -0.06333218 0.04544787 -0.0121677285 -0.019677926 -0.048225343 -0.05941064
0.09093633 0.021628322 0.07666942 -0.047462136 0.031549312 -0.009901954 0.08399851 0.0122362245
0.049788877 0.018046282 0.05915227 -0.044024725 0.0165147 0.020412898 -0.05446392 0.07898372
-0.04370261 0.0121896025 -0.066472664 0.013339023 0.026349973 0.059038702 -0.0011030629 0.008173305
0.059825316 0.050963886 0.08197256 -0.0016897536 -0.061781105 0.06873584 0.060608163 0.015234039
0.07963721 -0.0061026895 0.026008 -0.0682156 0.0041783554 0.021302747 0.004826158 0.057109945
0.018400231 0.068355866 -0.06880146 -0.010628532 0.05546672 0.0485461 -0.005467859 -0.05071155
-0.04187971 -0.020682858 -0.016808566 0.03347067 0.08458457 0.041086208 0.047006525 0.08644485
0.095003895 0.09022474 -0.012272458 -0.047311056 0.0005617592 0.07129836 0.011241206 -0.020900466
00000000: 13ac f0bc 97d0 983d 1427 173d 82b6 333d
00000010: ce4d 97bd 9dc2 b8bc 8a1e a23b 874b ed3c
00000020: dad5 b13c 001f a5bd aebd 72bd 6d63 083b
00000030: 9b5c ba3d 04ac 45bc 7ea3 a73d ecec 943d
00000040: eee4 523b c296 03bc 5b3f b73c f877 673d
00000050: 71e5 4c3d 0f10 89bc 75da 823d 79eb 7cbd
00000060: ec75 e63b e20c 1a3d 2a6d 233c f941 af3c
00000070: a369 70bd 2cf1 993c d1a4 7a3d d014 7c3d
00000080: a95b a03d b740 8e3d 6195 b63d 39bf 913d
00000090: 5640 b7ba e4a0 f43c f721 89bd 7eb0 67ba
000000a0: 0551 743d ef83 32bd 9c18 3dbd e82e 723d
000000b0: 53aa f83c eaaf a33d 7622 6d3c 215b ef3c
000000c0: bab4 3b3d b8ff 843d 4bc4 67bd 5811 87bc
000000d0: 61d2 823d b46c 38bd fdf9 5cbd 2fff 4e3d
000000e0: 4f6f 293d 6e39 d53c 3c05 1e3d f4a7 ba3d
000000f0: 337f 4f3d 9507 d8bb 201f 793d b547 44bd
00000100: e76f aa3d 7b58 003d 8b74 de3c 7678 92bd
00000110: 1e6d ebbc b641 d1bc 757f d2ba dad9 043d
00000120: 3bde 9f3d 117a cfbb 9fe2 afbb eb97 793d
00000130: 6173 673c 8158 583d 4536 c2bc d3f2 3cbd
00000140: 39a5 c33d b02a 77bd b99b 88bc 718c 85bd
00000150: 7260 3d3d 0b37 7bbd 028d 68bd 4bff 113d
00000160: 960e 073c fae2 a93c 4db4 81bd 8c27 3a3d
00000170: 275b 47bc 9a33 a1bc f087 45bd 9258 73bd
00000180: d43c ba3d e12d b13c db04 9d3d a867 42bd
00000190: da39 013d ce3b 22bc 6907 ac3d 727a 483c
000001a0: 6cef 4b3d ccd5 933c a749 723d 4553 34bd
000001b0: d649 873c f338 a73c 8f15 5fbd 37c2 a13d
000001c0: 8201 33bd e6b6 473c d222 88bd eb8b 5a3c
000001d0: e6db d73c 91d2 713d a694 90ba 53e9 053c
000001e0: 640b 753d 82bf 503d 3be1 a73d b97a ddba
000001f0: 2f0e 7dbd 60c5 8c3d 4440 783d 3198 793c
00000200: d518 a33d 12f9 c7bb bb0e d53c 9fb4 8bbd
00000210: 96ea 883b 1983 ae3c bf24 9e3b 1eec 693d
00000220: 15bc 963c 29fe 8b3d c8e7 8cbd 4b23 2ebc
00000230: 1231 633d 46d8 463d ba2b b3bb eab6 4fbd
00000240: 0f8a 2bbd 196f a9bc 1eb2 89bc 8b18 093d
00000250: ad3a ad3d 034a 283d ea89 403d ff09 b13d
00000260: 6791 c23d c0c7 b83d 6b12 49bc 3dc9 41bd
00000270: 0643 133a e004 923d 092d 383c 7437 abbc

main.4.weight f4 [160, 160]
-0.03017754 0.060171384 -0.048771005 0.036742464 -0.069941126 0.074388795 -0.040560957 0.07272704
0.07353173 0.02523636 -0.022157697 -0.061050374 -0.034671716 -0.021902783 0.07675612 -0.0605418
-0.040545214 0.048841465 0.09023086 -0.00358419 0.025961934 -0.009976453 -0.026353814 0.023630349
0.009887248 0.06653019 -0.024561534 0.0052830246 0.049208857 0.0053195283 0.016352354 0.07382431
-0.036674224 -0.04822825 0.012892616 -0.038685516 -0.0366471 -0.0322367 -0.0264473 0.051971264
0.042656966 0.06193472 -0.015619618 0.015802724 -0.028450146 -0.017924607 0.02058639 0.013138313
-0.011360865 0.053540695 0.06665831 0.0012508226 0.024728265 -0.03799616 0.0054009277 -0.023429086
-0.048465382 -0.024421751 -0.06368396 -0.026664993 -0.006120042 -0.00671761 -0.03909378 0.05485814
-0.04614872 0.05560229 -0.013977333 -0.027136326 0.03354351 0.0073787835 -0.06075777 -0.030524129
-0.010947016 0.07152021 0.015821142 0.06582013 0.04899744 -0.05451535 -0.0010547298 -0.053808566
0.06553179 -0.013502272 -0.049412083 0.009575874 0.04866873 0.0654699 -0.01700587 -0.021526607
0.07929118 0.052304115 0.079399794 -0.027971728 0.051693756 -0.016394176 0.0145014785 0.06685607
0.008566944 -0.01605484 0.037965436 -0.03947005 0.05213179 -0.037606556 0.08021483 0.070700735
-0.0069880765 0.04425231 -0.015216621 -0.05668963 -0.017073445 0.07706477 0.023693202 0.026928768
0.053644683 0.063659504 -0.057907138 -0.054416537 0.015735598 -0.015964571 0.0001201329 -0.031426173
0.041879922 0.049460605 0.032377057 0.020266557 -0.049970318 -0.0015909452 0.07502533 0.06879087
0.039250538 0.014026951 0.059613045 0.022507317 0.036984943 0.07161344 0.07606871 -0.012253945
0.053862724 -0.034004647 -0.029058544 0.058815103 0.039179765 -0.05968343 -0.030187903 -0.060393013
0.034896873 0.0031862445 -0.010301867 -0.017569585 -0.02274198 0.070894234 0.033032745 0.083427146
0.056110583 0.08754413 0.07281222 0.041482095 -0.0082382625 0.067001894 -0.03488078 -0.024288746
-0.052418467 -0.0069047003 0.069127075 -0.0053411783 -0.058582917 0.013488194 -0.004054312 0.0521975
-0.05524776 0.049212277 -0.008119235 -0.047551733 -0.02548956 0.0706151 -0.016892932 0.06885378
0.017109927 -0.021053834 0.08243968 0.022749506 0.048400316 -0.03341013 -0.019837288 -0.012567089
-0.029640835 0.024524698 0.057841416 -0.028657809 0.00930521 -0.059963588 -0.039119184 0.077467196
0.049822833 -0.030090814 0.046195976 -0.03255133 0.0007558323 -0.039294966 -0.043972053 0.063542135
-0.0043456783 0.011477916 0.0072041843 -0.028694898 0.023542028 0.023405518 -0.019954262 0.023222009
-0.041885246 0.028493753 0.08103681 0.02390356 -0.064667426 -0.049695205 0.033002146 0.08810277
-0.037604358 -0.046499662 0.038866997 0.012099538 -0.02286786 0.039918657 0.03399186 0.0522234
-0.0622067 0.05277951 0.007929254 0.04731656 -0.03039475 -0.015269989 -0.046375677 -0.04156761
0.08706438 0.045728963 -0.0017302713 0.061237045 0.08679441 0.04513121 0.00895198 -0.068333164
0.060902912 0.06876433 0.06680086 0.009959782 0.0055703702 0.09147651 0.014993869 -0.039480858
0.08266382 -0.015137326 0.075190604 -0.053910617 0.008535263 -0.043061126 0.080447555 0.060110547
00000000: e336 f7bc 4576 763d 1bc4 47bd 447f 163d
00000010: 4b3d 8fbd 2759 983d 3f23 26bd eaf1 943d
00000020: ce97 963d 7cbc ce3c 0f84 b5bc f50f 7abd
00000030: ee03 0ebd 776d b3bc 5032 9d3d aefa 77bd
00000040: bd12 26bd fd0d 483d f5ca b83d bbe4 6abb
00000050: 1fae d43c 4774 23bc f4e3 d7bc 6f94 c13c
00000060: 20fe 213c fb40 883d 4535 c9bc 391d ad3b
00000070: 3a8f 493d 704f ae3b 5ff5 853c 3331 973d
00000080: b637 16bd fc8a 45bd 8d3b 533c b474 1ebd
00000090: 451b 16bd a10a 04bd 02a8 d8bc d2df 543d
000000a0: 12b9 2e3d 43af 7d3d 6de9 7fbc b774 813c
000000b0: 4810 e9bc a0d6 92bc caa4 a83c 1442 573c
000000c0: ec22 3abc 7d4d 5b3d 2784 883d a4f2 a33a
000000d0: ee92 ca3c dda1 1bbd 44fa b03b 5bee bfbc
000000e0: a383 46bd 2010 c8bc bc6c 82bd 8b70 dabc
000000f0: a28a c8bb 661f dcbb cd20 20bd eeb2 603d
00000100: 7106 3dbd 3abf 633d 2f01 65bc 004d debc
00000110: eb64 093d b9c9 f13b 24dd 78bd bd0d fabc
00000120: 1d5b 33bc 3079 923d 579b 813c b4cc 863d
00000130: 8ab1 483d 7d4b 5fbd dc3e 8aba 5f66 5cbd
00000140: 8835 863d a238 5dbc 5364 4abd 20e4 1c3c
00000150: dd58 473d 1515 863d e54f 8bbc 9158 b0bc
00000160: 6a63 a23d d73c 563d 5c9c a23d f724 e5bc
00000170: d5bc 533d 144d 86bc 9c97 6d3c d6eb 883d
00000180: 5e5c 0c3c 7185 83bc a581 1b3d 59ab 21bd
00000190: 2588 553d 5509 1abd ac47 a43d 8ccb 903d
000001a0: 3cfc e4bb e941 353d 224f 79bc 6333 68bd
000001b0: 9cdd 8bbc 22d4 9d3d 3f18 c23c b899 dc3c
000001c0: 87ba 5b3d ea5f 823d 0930 6dbd e0e3 5ebd
000001d0: f1e7 803c 22c8 82bc dcef fb38 bbb8 00bd
000001e0: 488a 2b3d 3497 4a3d ce9d 043d 0d06 a63c
000001f0: adad 4cbd 4387 d0ba e1a6 993d 3ae2 8c3d
00000200: 2cc5 203d 4cd1 653c cf2c 743d 4461 b83c
00000210: 867d 173d 11aa 923d e9c9 9b3d c5c4 48bc
00000220: 299f 5c3d 7548 0bbd 2f0c eebc 1be8 703d
00000230: f67a 203d 9d76 74bd 9f4c f7bc aa5e 77bd
00000240: 06f0 0e3d 50d0 503b 29c9 28bc 17ee 8fbc
00000250: 644d babc ff30 913d 584d 073d dadb aa3d
00000260: 36d4 653d 564a b33d 931e 953d 21e9 293d
00000270: c7f9 06bc 4a38 893d 26df 0ebd 31f9 c6bc
00000280: bfb4 56bd d340 e2bb 7f92 8d3d 0d05 afbb
00000290: a4f4 6fbd 96fd 5c3c 09da 84bb 0ccd 553d
000002a0: 7a4b 62bd d092 493d 8a06 05bc 9bc5 42bd
000002b0: 7bcf d0bc a69e 903d 0c63 8abc 3603 8d3d
000002c0: 1e2a 8c3c 1779 acbc 23d6 a83d 2c5d ba3c
000002d0: 693f 463d 0fd9 08bd cf81 a2bc 31e6 4dbc
000002e0: 56d1 f2bc 05e8 c83c 1feb 6c3d c8c3 eabc
000002f0: e174 183c 619c 75bd 703b 20bd 1fa7 9e3d
00000300: 0713 4c3d 0381 f6bc fe37 3d3d 8b54 05bd
00000310: 0c23 463a c2f3 20bd 0a1c 34bd 6122 823d
00000320: 3166 8ebb de0d 3c3c 1411 ec3b 9011 ebbc
00000330: 36db c03c eebc bf3c 1f77 a3bc 153c be3c
00000340: dd8f 2bbd bb6b e93c a1f6 a53d 66d1 c33c
00000350: 5b70 84bd 338d 4bbd 422d 073d 3a6f b43d
00000360: 0707 1abd 6e76 3ebd 0033 1f3d 243d 463c
00000370: 6155 bbbc bf81 233d 0c3b 0b3d 34e8 553d
00000380: 74cc 7ebd 542f 583d b4e9 013c 02cf 413d
00000390: 69fe f8bc fa2e 7abc 6cf4 3dbd cc42 2abd
000003a0: cf4e b23d 4b4e 3b3d 45ca e2ba b2d3 7a3d
000003b0: 45c1 b13d 81db 383d 53ab 123c 42f2 8bbd
000003c0: 5575 793d 50d4 8c3d e4ce 883d 5a2e 233c
000003d0: a787 b63b 0958 bb3d d8a8 753c aeb6 21bd
000003e0: a64b a93d 8c02 78bc 88fd 993d 61d1 5cbd
000003f0: 7dd7 0b3c dd60 30bd b0c1 a43d 7a36 763d

main.4.bias f4 [160]
-0.02395122 0.0055629187 -0.038858928 -0.048832357 0.006628737 0.046380818 -0.04351338 0.07335358
0.06207881 0.0467558 -0.016232276 -0.057352126 -0.018467523 0.065659985 -0.02791047 0.038772292
-0.00080788403 0.07545261 0.044648465 0.038728226 0.07720206 0.078857124 0.008632174 -0.017366406
-0.055664822 -0.0052173585 -0.022731539 0.005694373 -0.059313666 0.012393944 -0.021753497 -0.010890514
0.09098166 -0.06735062 -0.00918835 -0.04236872 0.074769236 0.047682144 0.008391889 0.044348136
-0.071922876 -0.004460747 0.022558354 -0.055185802 0.0013018664 0.06844278 0.064015865 0.002212398
0.08623078 -0.024382755 0.050110362 0.006895821 0.020752043 -0.0074011516 0.04470605 -0.03831866
0.05543454 -0.013118283 0.039329167 0.040220406 0.05142974 0.04179493 -0.04238428 -0.020417642
0.039605025 0.040940013 0.037781607 0.07216177 0.059158538 0.0010956383 -0.0029912957 0.0294409
-0.01834375 -0.058325056 -0.030099062 0.005820194 -0.023881195 0.06180773 -0.041351143 0.010951642
-0.045797203 0.0027076902 -0.029373443 -0.052569598 -0.04020263 -0.016256984 -0.0031724388 0.03139859
0.05501733 0.036371205 -0.009487086 0.069010705 -0.038691718 0.08809881 0.06399017 -0.030188764
0.037452247 -0.04848089 -0.044191707 0.032413203 0.05704093 -0.06300286 0.08484475 -0.046269234
-0.076182626 0.041719265 0.03553843 0.025371557 0.047688417 0.022985185 0.03889668 0.044086367
0.00929355 0.088182256 0.059038784 -0.053041823 -0.033750866 -0.06875979 0.04222425 0.09033593
-0.06320749 -0.0398877 -0.015354871 -0.08083674 -0.020477392 0.06113809 0.08254719 -0.0032595533
-0.05070793 -0.06575731 0.033150274 0.07353421 0.052753624 0.0027398318 0.050925832 -0.06546284
0.07294217 -0.009510628 -0.052210778 0.045451313 -0.03081195 0.08107034 -0.03258515 -0.028190041
0.08146344 0.06117358 0.024046615 0.018342497 0.039267145 -0.049501322 0.05221239 0.08077068
0.060582858 -0.04582858 0.057454426 -0.012199364 0.019319627 0.0016469011 -0.05287738 0.05590279
00000000: 5935 c4bc 2549 b63b 8a2a 1fbd 7004 48bd
00000010: e035 d93b d0f9 3d3d 163b 32bd 673a 963d
00000020: 5a46 7e3d 0283 3f3d 8df9 84bc 10ea 6abd
00000030: 3449 97bc be78 863d 7fa4 e4bc b2cf 1e3d
00000040: 2ec8 53ba e686 9a3d 4fe1 363d 7da1 1e3d
00000050: 1d1c 9e3d d87f a13d f66d 0d3c fe43 8ebc
00000060: cc00 64bd 60f6 aabb 7e37 babc dd97 ba3b
00000070: e3f2 72bd f80f 4b3c 6434 b2bc 206e 32bc
00000080: 9854 ba3d 1fef 89bd bc8a 16bc d38a 2dbd
00000090: 9d20 993d 5a4e 433d 227e 093c 64a6 353d
000000a0: 4d4c 93bd 752b 92bb 4ccc b83c 820a 62bd
000000b0: 63a3 aa3a ba2b 8c3d c01a 833d e1fd 103b
000000c0: c399 b03d 58be c7bc 8640 4d3d 57f6 e13b
000000d0: 3000 aa3c 5c85 f2bb b11d 373d 07f4 1cbd
000000e0: 540f 633d 11ee 56bc 9f17 213d 27be 243d
000000f0: fea7 523d 2931 2b3d 249b 2dbd e642 a7bc
00000100: e138 223d b7b0 273d e3c0 1a3d 8dc9 933d
00000110: 3950 723d 859b 8f3a 9d09 44bb 0b2e f13c
00000120: a245 96bc 41e6 6ebd 4f92 f6bc 53b7 be3b
00000130: 7fa2 c3bc 1a2a 7d3d d15f 29bd 846e 333c
00000140: d995 3bbd 8173 313b 93a0 f0bc 3853 57bd
00000150: 83ab 24bd 5e2d 85bc b1e8 4fbb cf9b 003d
00000160: da59 613d f9f9 143d b96f 1bbc 7c55 8d3d
00000170: 357b 1ebd 266d b43d 470d 833d 6d4e f7bc
00000180: 8767 193d e693 46bd 5d02 35bd b5c3 043d
00000190: c0a3 693d a507 81bd 16c3 ad3d cf84 3dbd
000001a0: a305 9cbd d2e1 2a3d bf90 113d 03d8 cf3c
000001b0: ee54 433d 6d4b bc3c 2052 1f3d e893 343d
000001c0: f943 183c e698 b43d a7d2 713d 6242 59bd
000001d0: 593e 0abd efd1 8cbd 56f3 2c3d 0b02 b93d
000001e0: ee72 81bd 4961 23bd ff92 7bbc bc8d a5bd
000001f0: 34c0 a7bc ef6b 7a3d 800e a93d 3b9e 55bb
00000200: 1eb3 4fbd c5ab 86bd 95c8 073d 1b99 963d
00000210: 2f14 583d c08e 333b 9b97 503d 6211 86bd
00000220: b462 953d 77d2 1bbc f8da 55bd 282b 3a3d
00000230: 5869 fcbc 3508 a63d 0278 05bd cdee e6bc
00000240: 4ed6 a63d 2691 7a3d 68fd c43c 0143 963c
00000250: 96d6 203d e6c1 4abd a9dc 553d 196b a53d
00000260: bb25 783d c0b6 3bbd 5555 6b3d d7df 47bc
00000270: 3244 9e3c d5dc d73a f495 58bd 53fa 643d

main.6.weight f4 [625, 160]
-0.03959232 0.032298427 0.023934256 -0.076662935 -0.024454828 0.09035156 0.03845417 -0.052700557
0.045684487 -0.030617941 0.07884334 -0.017646423 0.036684427 -0.051240966 -0.040441845 -0.04160226
0.008367434 -0.003045451 0.013984699 0.059027404 0.045889266 0.0024894413 0.01884082 0.009916483
-0.066825256 0.08463831 -0.024932524 0.033696864 0.035456166 -0.03809953 0.088940166 0.07029432
0.089888364 0.010713773 -0.014463655 -0.02608371 -0.06116939 -0.04850773 0.016835023 0.013010331
-0.016140403 0.061519884 -0.010974677 -0.037532963 0.06914653 -0.02007519 0.035513688 0.02230319
0.05986994 0.09289597 0.0059563974 -0.038709827 0.05378408 -0.021595387 -0.026790084 0.07151487
-0.056667652 0.044464502 0.081116006 -0.034308083 -0.03730759 0.089789465 -0.079449624 0.04708468
0.0378876 0.07669187 0.034310628 -0.02007412 -0.0644761 0.06973847 0.018189661 0.0073009343
0.041253924 0.08842105 0.037664853 0.08227198 0.047980804 -0.018506246 0.03316619 0.00075362244
-0.0029153496 0.013478113 0.0008086904 0.007865914 -0.043328445 -0.06080071 -0.02377944 0.054513134
-0.03888789 -0.030917948 0.0072883917 0.06684436 0.06881421 0.024402741 0.058928613 -0.0016066012
0.0029790981 -0.0019959956 0.054125912 0.038272217 0.006396516 0.08882116 0.018509068 0.0499877
0.03742303 -0.0052294494 0.06710102 -0.0024758065 -0.0558057 -0.019660586 0.05025737 0.057090048
0.0019226057 0.011354116 0.07792157 -0.004048531 0.03501036 -0.008001122 -0.045695584 -0.022285532
0.04857866 0.031376764 -0.006823953 -0.010067564 0.03151614 0.08822799 -0.00347669 -0.015738185
-0.032579653 0.023758488 0.0669281 0.04802129 -0.054742567 -0.03901933 -0.042532902 0.035651345
0.06933484 0.06834781 -0.004961342 0.03723662 0.015265105 -0.05872616 0.06592952 0.063191086
-0.05574325 0.08345031 0.05160179 -0.056047134 0.06644345 -0.05342759 0.06576385 0.011467256
-0.005322124 0.03608276 0.05573982 -0.040525153 0.06431954 -0.006096873 0.080462046 0.092377864
0.08729502 0.056619976 -0.016453182 -0.028577998 -0.037031148 -0.03577271 -0.05690334 -0.05544934
0.007659864 -0.026781844 0.0028232276 0.023498742 0.077850275 0.08873279 0.041742563 -0.047905598
0.051882386 0.042606007 -0.058328494 0.053210158 0.0395772 0.055414077 -0.040013406 0.039561708
-0.039377086 0.009959156 0.076002985 0.0018904062 -0.074498564 -0.009129984 0.05804746 0.0349429
-0.044283446 0.061534718 -0.06360164 0.05261333 0.059513673 0.028648835 -0.06578187 0.039885968
-0.0052078106 -0.06389747 -0.036768522 0.049674653 -0.022247743 -0.048140492 0.059533395 0.024901245
0.0030068962 -0.04362521 -0.055132516 0.08987603 -0.040224515 -0.007083132 0.065672 -0.041091464
0.055816546 -0.032763265 0.0086934725 0.02667356 0.055413067 0.020782486 0.07552241 0.041420322
-0.021295954 -0.040994678 -0.008117642 -0.053085286 -0.038698655 0.060692873 -0.0033374378 -0.012896807
-0.029465262 -0.035190057 0.0005401656 -0.06862791 -0.059342705 0.06093031 0.05783457 -0.058909617
0.024331972 -0.005274839 0.05144843 -0.03880074 0.054665335 -0.000553145 0.05262449 0.0022292198
0.0012403824 -0.021227734 0.0064953314 0.068708554 -0.071034044 -0.051043626 -0.04788506 0.008836285
00000000: 8e2b 22bd 5b4b 043d c611 c43c 7501 9dbd
00000010: 7e55 c8bc 3d0a b93d 1f82 1d3d 8adc 57bd
00000020: a81f 3b3d 7ad2 fabc 9e78 a13d 3b8f 90bc
00000030: 6942 163d 0ce2 51bd 59a6 25bd 2267 2abd
00000040: 9017 093c 3096 47bb 1420 653c b8c6 713d
00000050: 62f6 3b3d e525 233b 1058 9a3c bf78 223c
00000060: aedb 88bd da56 ad3d 4b3f ccbc b905 0a3d
00000070: 7c3a 113d 410e 1cbd 4326 b63d 78f6 8f3d
00000080: 6417 b83d d288 2f3c f7f8 6cbc 81ad d5bc
00000090: c18c 7abd 0bb0 46bd 9ae9 893c 4929 553c
000000a0: e138 84bc 46fc 7b3d 22cf 33bc 2abc 19bd
000000b0: b29c 8d3d ba74 a4bc cd76 113d 2eb5 b63c
000000c0: 2f3a 753d 3e40 be3d e22d c33b 328e 1ebd
000000d0: b24c 5c3d cfe8 b0bc e176 dbbc 6376 923d
000000e0: 571c 68bd 6920 363d 2620 a63d a286 0cbd
000000f0: d8cf 18bd 8ae3 b73d 7cb6 a2bd dedb 403d
00000100: 0730 1b3d a110 9d3d 4d89 0c3d 7b72 a4bc
00000110: 0c0c 84bd 0bd3 8e3d 7c02 953c ad3c ef3b
00000120: e0f9 283d 1816 b53d 7646 1a3d 367e a83d
00000130: 8587 443d 699a 97bc 45d9 073d bf8e 453a
00000140: 730f 3fbb 4ed3 5c3c 4bfe 533a 09e0 003c
00000150: 2b79 31bd 2a0a 79bd 1acd c2bc 2a49 5f3d
00000160: e848 1fbd a347 fdbc 76d3 ee3b b2e5 883d
00000170: 77ee 8c3d 42e8 c73c 215f 713d 9794 d2ba
00000180: f93c 433b 40cf 02bb 22b3 5d3d 54c3 1c3d
00000190: de99 d13b dee7 b53d 54a0 973c e7bf 4c3d
000001a0: e448 193d cd5b abbb 426c 893d 2441 22bb
000001b0: 8594 64bd 3d0f a1bc acda 4d3d 41d7 693d
000001c0: f1ff fb3a 9d06 3a3c 5895 9f3d 8aa9 84bb
000001d0: 0667 0f3d 2317 03bc 4b2b 3bbd 2690 b6bc
000001e0: 6bfa 463d ec84 003d 779b dfbb 6df2 24bc
000001f0: 1117 013d e0b0 b43d 2ed9 63bb 5eed 80bc
00000200: 3e72 05bd 29a1 c23c 9a11 893d f9b1 443d
00000210: be39 60bd bcd2 1fbd fb36 2ebd 2507 123d
00000220: 6dff 8d3d f0f9 8b3d c192 a2bb 6d85 183d
00000230: 7e1a 7a3c d88a 70bd 0e06 873d 546a 813d
00000240: 0953 64bd ffe7 aa3d 665c 533d ae91 65bd
00000250: 8113 883d e3d6 5abd 33af 863d 28e1 3b3c
00000260: 3665 aebb 84cb 133d 704f 643d b4fd 25bd
00000270: f7b9 833d 47c8 c7bb 49c9 a43d 9b30 bd3d
00000280: bbc7 b23d 59ea 673d d3c8 86bc 681c eabc
00000290: f9ad 17bd 6886 12bd 7a13 69bd d91e 63bd
000002a0: 99ff fa3b 9965 dbbc e605 393b 6f80 c03c
000002b0: f76f 9f3d 89b9 b53d 40fa 2a3d a938 44bd
000002c0: a082 543d a383 2e3d dce9 6ebd e5f2 593d
000002d0: b41b 223d dff9 623d 19e5 23bd 750b 223d
000002e0: de49 21bd ba2b 233c 74a7 9b3d 82c7 f73a
000002f0: b492 98bd ee95 15bc 2cc3 6d3d 4920 0f3d
00000300: 8f62 35bd d40b 7c3d 9441 82bd 1381 573d
00000310: 9cc4 733d f6b0 ea3c a5b8 86bd 785f 233d
00000320: 48a6 aabb addc 82bd 979a 16bd a677 4b3d
00000330: e640 b6bc f72e 45bd 4ad9 733d b2fd cb3c
00000340: 590f 453b 59b0 32bd a2d2 61bd ed10 b83d
00000350: 76c2 24bd 9e19 e8bb 0b7f 863d 864f 28bd
00000360: e49f 643d c632 06bd 116f 0e3c 8282 da3c
00000370: d0f8 623d 0840 aa3c 7eab 9a3d 5ba8 293d
00000380: da74 aebc 09ea 27bd dcff 04bc f56f 59bd
00000390: 7b82 1ebd 1799 783d eab8 5abb 214d 53bc
000003a0: 2261 f1bc 7323 10bd e699 0d3a ca8c 8cbd
000003b0: 5611 73bd 1092 793d f1e3 6c3d 364b 71bd
000003c0: d853 c73c 8ed8 acbb 97bb 523d 86ed 1ebd
000003d0: c2e8 5f3d ef00 11ba c78c 573d 1a18 123b
000003e0: 5494 a23a c9e5 adbc cad6 d43b 12b7 8c3d
000003f0: 4c7a 91bd 1f13 51bd 2023 44bd 11c6 103c

main.6.bias f4 [625]
-0.03978196 0.065448254 0.00027243176 -0.059587132 0.05459558 -0.0029117889 -0.036098 0.029103978
-0.043409407 0.05410978 0.0601898 -0.059576914 0.025943125 -0.029993473 0.067174464 0.029810833
-0.008050654 0.051700957 -0.045380596 0.0019850184 -0.050122205 -0.06384317 0.0011979035 0.05242339
0.06772389 -0.056256033 0.077118516 0.024757218 0.016141385 0.0056657526 -0.01047113 -0.013250425
-0.025980394 0.005784646 -0.024752082 0.044536673 -0.049088735 0.0027630096 -0.0708649 0.02197653
0.072164185 0.015314555 -0.024280138 0.083146155 0.02101402 -0.024996812 0.06791642 -0.043369636
0.00057008374 0.03953357 0.06664998 0.014490856 0.03457387 0.008254704 -0.043801755 -0.050583445
-0.00974304 -0.011546287 0.07120294 0.074844845 -0.015825888 0.06620874 0.04669555 0.07658056
-0.045017783 0.05374749 0.05139484 0.042690556 -0.029162878 0.070280395 -0.051762026 0.025937907
-0.037725776 0.053783115 0.0041302666 0.03616306 0.08704001 0.062369246 -0.013462461 -0.062394816
-0.02325009 -0.032655932 0.06063253 -0.03495176 0.04335106 0.023058843 0.0010710448 0.072416626
0.03265637 -0.067427814 0.0038028976 0.041081488 -0.051693134 -0.004283453 -0.0734307 0.028977087
0.009451458 -0.06890112 -0.0047013746 0.0066158306 0.05079225 -0.051390663 0.07747997 0.048377946
-0.034742467 -0.054711647 -0.001163496 0.019583758 0.010185299 -0.003066187 -0.018177116 -0.029150385
-0.039579798 0.04662056 7.9937636e-05 -0.041439034 0.07212518 -0.01946052 -0.026516391 -0.024344636
0.039192963 0.046847872 -0.048499644 -0.05104247 0.027116576 0.000969972 -0.042578943 0.005439743
0.027434042 0.07399417 0.038613956 0.059942238 -0.026202332 -0.050601006 -0.029854108 -0.012819804
-0.06082398 -0.033304267 -0.0676615 -0.037746634 0.01969912 0.027509505 0.073826514 0.011820231
-0.011786644 -0.069743685 0.007070169 0.06841358 0.017478839 0.03937631 0.07992913 0.031411085
0.08605292 0.00970083 -0.06350943 0.0765748 -0.05287817 0.04520624 0.037594963 0.013284517
-0.06435286 0.0013960565 -0.024691133 0.033464093 -0.05387545 -0.04610956 -0.019068321 0.065105386
-0.029932892 -0.030926125 -0.050031196 0.04545391 -0.04027923 0.041451883 -0.013873463 -0.05446723
0.05929544 0.03852998 -0.06255776 -0.015083631 0.022075329 0.057543587 0.07344169 0.0017186678
0.023362555 0.06382743 0.048608623 0.034145527 -0.040904596 -0.024506757 0.008035278 0.022481505
-0.016878556 0.07748534 -0.033935454 -0.034505323 -0.052256636 0.052740082 -0.039240573 0.022236774
0.08447298 0.07617512 0.059092846 0.05361029 0.021242145 -0.0057139467 0.02002868 -0.061852176
0.0584301 0.068327256 -0.04109664 0.0110647315 0.027513051 0.022168132 0.047920704 -0.063842304
0.06733721 -0.06438294 -0.079248205 -0.030415468 0.036177296 0.04230166 0.02768779 -0.038028665
0.020443792 -0.012140205 -0.050161604 0.06752757 0.05617868 0.04013363 0.041563552 0.050486047
0.06287503 0.02176883 -0.0231464 -0.018928794 0.0341956 -0.030485481 0.06846737 -0.06994402
-0.024611892 -0.04383183 -0.07373241 -0.053719807 0.0034008778 -0.02398134 -0.043784518 0.010957474
0.072558165 0.01474065 0.08168189 0.0470025 0.047913484 -0.04498503 0.015747128 -0.0025422196
00000000: 69f2 22bd bc09 863d 2cd5 8e39 a311 74bd
00000010: 9d9f 5f3d b6d3 3ebb 7fdb 13bd 776b ee3c
00000020: 10ce 31bd 37a2 5d3d 9489 763d ec06 74bd
00000030: ad86 d43c dfb4 f5bc c492 893d d935 f43c
00000040: e4e6 03bc 62c4 533d 01e1 39bd 1517 023b
00000050: f14c 4dbd 35c0 82bd f902 9d3a e9b9 563d
00000060: d3b2 8a3d ba6c 66bd 50f0 9d3d a6cf ca3c
00000070: f03a 843c c7a7 b93b 1a8f 2bbc 5018 59bc
00000080: d6d4 d4bc 218d bd3b e1c4 cabc 166c 363d
00000090: 4511 49bd 9c13 353b 9e21 91bd 2008 b43c
000000a0: d1ca 933d e6e9 7a3c 24e7 c6bc 8848 aa3d
000000b0: 9825 ac3c 1dc6 ccbc c417 8b3d 5ca4 31bd
000000c0: ac71 153a f4ed 213d c97f 883d 0e6b 6d3c
000000d0: 559d 0d3d bd3e 073c 7869 33bd 9630 4fbd
000000e0: 46a1 1fbc a32c 3dbc d9d2 913d 4148 993d
000000f0: 4ba5 81bc 7398 873d d543 3f3d 45d6 9c3d
00000100: 9164 38bd 5426 5c3d 6583 523d 4bdc 2e3d
00000110: fde6 eebc 2bef 8f3d 6b04 54bd bc7b d43c
00000120: 5886 1abd af4b 5c3d 3057 873b b81f 143d
00000130: 0842 b23d e576 7f3d a791 5cbc b591 7fbd
00000140: f976 bebc 3ac2 05bd d159 783d 9429 0fbd
00000150: e290 313d e6e5 bc3c 4d62 8c3a 2b4f 943d
00000160: b0c2 053d 9817 8abd 093a 793b 1045 283d
00000170: 2ebc 53bd 355c 8cbb d662 96bd 5b61 ed3c
00000180: 4ada 1a3c 081c 8dbd fd0d 9abb 9cc9 d83b
00000190: 890b 503d 047f 52bd d2ad 9e3d f427 463d
000001a0: 1e4e 0ebd 5219 60bd 7380 98ba 1e6e a03c
000001b0: 3ee0 263c 15f2 48bb 2de8 94bc cacc eebc
000001c0: 6d1e 22bd 33f5 3e3d 31a4 a738 fabb 29bd
000001d0: 5eb6 933d ab6b 9fbc e738 d9bc 676e c7bc
000001e0: cd88 203d 8ee3 3f3d 90a7 46bd e911 51bd
000001f0: 9523 de3c b845 7e3a 4267 2ebd df3f b23b
00000200: 5bbd e03c 418a 973d ab29 1e3d fe85 753d
00000210: 46a6 d6bc 0043 4fbd 9a90 f4bc 280a 52bc
00000220: 9122 79bd 0e6a 08bd 1d92 8abd 379c 1abd
00000230: 0d60 a13c 9d5b e13c 5b32 973d a4a9 413c
00000240: c51c 41bc c7d5 8ebd e0ac e73b 6b1c 8c3d
00000250: c82f 8f3c 0e49 213d e2b1 a33d e9a8 003d
00000260: 833c b03d 3bf0 1e3c 3b11 82bd 40d3 9c3d
00000270: c896 58bd 2e2a 393d 2dfd 193d 4ea7 593c
00000280: 6fcb 83bd e2fb b63a 0f45 cabc a511 093d
00000290: 81ac 5cbd 61dd 3cbd 2b35 9cbc f955 853d
000002a0: d335 f5bc c958 fdbc 83ed 4cbd e12d 3a3d
000002b0: d5fb 24bd 73c9 293d 854d 63bc 0819 5fbd
000002c0: c6df 723d 9dd1 1d3d 481e 80bd 5521 77bc
000002d0: 52d7 b43c d3b2 6b3d 9968 963d ec44 e13a
000002e0: d462 bf3c f5b7 823d d619 473d 2edc 0b3d
000002f0: 948b 27bd 65c2 c8bc 66a6 033c 222b b83c
00000300: e644 8abc a2b0 9e3d e7ff 0abd 7455 0dbd
00000310: 0e0b 56bd fc05 583d b9ba 20bd e529 b63c
00000320: 2b00 ad3d b401 9c3d 570b 723d 7796 5b3d
00000330: 0204 ae3c 0f3c bbbb 3013 a43c b558 7dbd
00000340: 6754 6f3d 29ef 8b3d f354 28bd d948 353c
00000350: 0d63 e13c f199 b53c 8048 443d c1bf 82bd
00000360: 17e8 893d 34db 83bd e24c a2bd dc29 f9bc
00000370: a52e 143d 8144 2d3d 81d1 e23c f2c3 1bbd
00000380: bd79 a73c b6e7 46bc 4176 4dbd e54b 8a3d
00000390: 9e1b 663d 2963 243d 8b3e 2a3d 75ca 4e3d
000003a0: a0c4 803d 8c54 b23c 859d bdbc 8f10 9bbc
000003b0: af10 0c3d b0bc f9bc 9f38 8c3d cf3e 8fbd
000003c0: e19e c9bc 0189 33bd 0501 97bd 4d09 5cbd
000003d0: 43e1 5e3b 8474 c4bc 6557 33bd fa86 333c
000003e0: 6099 943d c482 713c d648 a73d b285 403d
000003f0: ee40 443d 3942 38bd 1f00 813c 5e9b 26bb
